Lab4_Model_Compression_Pruning_and_Quantization/Checkpoint/SincNet_prune.pth.tar (torch, 870067 bytes, 48 tensors)

sincconv.conv0.low_hz_ f4 [37, 1]
000000 00 00 f0 41 97 a4 a0 42 9c 1c 06 43 2a 9c 3f 43
       30.0 80.321465 134.11176 191.61002
000010 63 12 7d 43 9c 62 9f 43 b9 7f c2 43 7b 08 e8 43
       253.07182 318.7704 388.99783 464.06625
000020 ce 13 08 44 61 85 1d 44 5f 71 34 44 dd f1 4c 44
       544.30945 630.08405 721.7714 819.7791
000030 bd 22 67 44 e7 90 81 44 77 87 90 44 14 86 a0 44
       924.5428 1036.5282 1156.2333 1284.19
000040 f2 9e b1 44 87 e5 c3 44 9f 6e d7 44 76 50 ec 44
       1420.967 1567.1727 1723.4569 1890.5144
000050 67 51 01 45 87 3f 0d 45 30 00 1a 45 e4 a1 27 45
       2069.0876 2259.9705 2464.0117 2682.1182
000060 26 34 36 45 8d c7 45 45 d1 6d 56 45 e5 39 68 45
       2915.2593 3164.472 3430.8635 3715.6184
000070 0a 40 7b 45 f3 ca 87 45 4f a9 92 45 78 47 9e 45
       4020.0024 4345.3687 4693.1636 5064.9336
000080 a5 b2 aa 45 f9 f8 b7 45 90 29 c6 45 8e 54 d5 45
       5462.3306 5887.1216 6341.1953 6826.5693
000090 38 8b e5 45
       7345.4023

sincconv.conv0.band_hz_ f4 [37, 1]
000000 2d 49 49 42 44 29 57 42 35 fe 65 42 e4 d8 75 42
       50.32146 53.7903 57.49825 61.461807
000010 ad 65 83 42 70 74 8c 42 0b 23 96 42 81 7c a0 42
       65.698586 70.22742 75.06844 80.24317
000020 9a 8c ab 42 ee 5f b7 42 f0 03 c4 42 05 87 d1 42
       85.77461 91.68736 98.00769 104.76371
000030 8b f8 df 42 f4 68 ef 42 d1 e9 ff 42 f5 c6 08 43
       111.985435 119.70499 127.95667 136.77718
000040 a9 34 12 43 c0 48 1c 43 b1 0e 27 43 c0 92 32 43
       146.2057 156.28418 167.05739 178.57324
000050 07 e2 3e 43 89 0a 4c 43 3f 1b 5a 43 2a 24 69 43
       190.88292 204.04115 218.10643 233.14127
000060 67 36 79 43 20 32 85 43 a1 60 8e 43 29 31 98 43
       249.21251 266.3916 284.7549 304.38406
000070 e4 ae a2 43 c2 e5 ad 43 86 e2 b9 43 d4 b2 c6 43
       325.36633 347.79498 371.7697 397.3971
000080 42 65 d4 43 66 09 e3 43 e9 af f2 43 4d b5 01 44
       424.79108 454.07343 485.3743 518.8328
000090 42 a6 0a 44
       554.5978

sincconv.bn.weight f4 [37]
000000 34 01 85 3f 2d 62 87 3f 3c 16 71 3f 9a 96 83 3f
       1.0390992 1.0576836 0.9417455 1.0280335
000010 3f db a2 3f 85 e2 82 3f 93 49 9b 3f 1f 1c 83 3f
       1.2723159 1.0225378 1.2131828 1.0242957
000020 65 82 76 3f d4 87 85 3f 35 dc 76 3f 09 d0 82 3f
       0.96292716 1.0432076 0.9642976 1.0219737
000030 d9 de 81 3f 9a 23 83 3f ab 14 8a 3f 5a 0c 76 3f
       1.0146133 1.024524 1.0787557 0.96112597
000040 4c 87 83 3f 67 3d 85 3f c7 2d 82 3f 16 84 83 3f
       1.0275664 1.0409364 1.017022 1.0274684
000050 2c c3 76 3f 1c ed 8a 3f a2 f1 83 3f 0c c2 83 3f
       0.9639156 1.085361 1.0308115 1.0293593
000060 26 4d 7c 3f 78 8f 7a 3f a2 b9 76 3f eb fb 65 3f
       0.9855522 0.97875166 0.96377003 0.8983752
000070 e4 91 75 3f 74 5b 69 3f b0 7e 7a 3f 62 7b 75 3f
       0.95925736 0.9115517 0.9784956 0.9589139
000080 b0 4e 65 3f 75 cf 76 3f 65 48 75 3f 4e fb 7f 3f
       0.8957319 0.96410304 0.9581359 0.99992836
000090 d3 58 85 3f
       1.0417732

sincconv.bn.bias f4 [37]
000000 c3 01 d2 3d 99 cd b9 3d f7 45 40 3e 14 35 11 3e
       0.10254242 0.09072418 0.1877669 0.14180404
000010 0f e0 08 3e d7 ab 33 3e a1 90 48 3e f5 ee 72 3e
       0.13366722 0.1754602 0.19586422 0.23723967
000020 95 83 73 3e 44 c1 33 3e d2 fa 5c 3e 14 d0 2a 3e
       0.23780663 0.17554194 0.21580055 0.16680938
000030 f5 32 94 3d 89 33 38 3e 7a 3e e2 3d 2b 77 02 3e
       0.07236282 0.17988409 0.11047073 0.12740771
000040 fa 0b da 3d ba b2 20 3e 9b 57 64 3d 5f 11 e4 3d
       0.106468156 0.15693179 0.05574761 0.11136126
000050 90 d6 07 3e d2 5d 7d 3d 7f 5d da 3d d3 bd 9f 3d
       0.13265443 0.061857052 0.10662364 0.07799878
000060 7a 96 0f 3e cc f8 0c 3e 20 b9 9c 3d 0f 40 a4 3d
       0.14022246 0.13766783 0.07652497 0.08020031
000070 f9 01 9d 3d ff 6a f7 3d ad f0 84 bc 3e f0 b8 3d
       0.07666392 0.12080955 -0.016228044 0.090301976
000080 34 5e 61 3d 55 2d 0a 3d 5c 97 2f 3d b1 ed f9 3c
       0.05502148 0.03373464 0.042868957 0.030508848
000090 53 92 0c 3c
       0.008579808

sincconv.bn.running_mean f4 [37]
000000 49 d0 c3 3d 4a 9f b2 3d 64 78 a5 3d c5 2e 9b 3d
       0.095612116 0.08721788 0.08079603 0.0757728
000010 07 6f 97 3d 0f f2 99 3d 40 08 9d 3d 36 da 9b 3d
       0.07394224 0.07516872 0.07667589 0.0760998
000020 d9 2c 95 3d 4f 24 89 3d 44 d0 74 3d 7b e3 56 3d
       0.07283945 0.066963784 0.05976893 0.052463036
000030 26 fc 3a 3d 4a 6f 1d 3d 18 6f 04 3d 36 ab e7 3c
       0.045650624 0.03843621 0.03233251 0.028279882
000040 6c 8f cc 3c c6 41 b1 3c 7c b3 93 3c a0 07 70 3c
       0.024970733 0.021637809 0.01802992 0.014650255
000050 4e 10 52 3c d1 87 4c 3c ed b8 49 3c 92 37 40 3c
       0.01282127 0.012483553 0.012312156 0.011731999
000060 33 48 25 3c de 07 15 3c 16 06 0a 3c 4b 8a f9 3b
       0.010088014 0.009096114 0.008424303 0.0076153628
000070 87 37 c0 3b 2d 89 a3 3b 6a ca 87 3b 64 9e 79 3b
       0.0058659944 0.004990718 0.0041440027 0.0038088793
000080 2c 18 63 3b bc 03 4d 3b 97 bb 2e 3b 72 7c e2 3a
       0.0034651859 0.0031282743 0.0026662105 0.0017279519
000090 0d da 28 3a
       0.00064411835

sincconv.bn.running_var f4 [37]
000000 e0 c9 dc 3c 4e 8c d2 3c e4 a8 c4 3c 8f ab b8 3c
       0.02695173 0.025701668 0.024006315 0.022542743
000010 0b 42 b9 3c be ef c7 3c 05 70 d8 3c db de df 3c
       0.0226145 0.02440631 0.026420603 0.027327945
000020 80 af db 3c 4c 41 cd 3c 58 3e b8 3c ab 7a 9e 3c
       0.026817083 0.02505555 0.022490665 0.019345602
000030 f8 83 7d 3c 9b 41 31 3c 17 29 00 3c 96 13 d5 3b
       0.015473358 0.010818864 0.007822297 0.006502579
000040 56 05 b5 3b e3 71 93 3b 2d d1 5e 3b 36 8a 1f 3b
       0.0055243177 0.0044996603 0.003399919 0.0024343855
000050 b8 b9 fa 3a a8 78 db 3a 42 d2 d6 3a ee a0 e1 3a
       0.0019128835 0.0016744332 0.0016389566 0.0017214098
000060 a8 1f b1 3a 41 58 8e 3a b0 3e 6e 3a e5 75 3b 3a
       0.0013513463 0.0010860042 0.00090883207 0.00071510515
000070 74 19 09 3a 2e aa dd 39 b3 8b 91 39 2f 3c 8c 39
       0.0005229928 0.00042279199 0.0002776064 0.0002674772
000080 1b 77 80 39 28 96 62 39 58 da 33 39 c1 a8 c5 38
       0.00024502803 0.00021608977 0.0001715211 9.425125e-05
000090 cc 81 c2 37
       2.3187044e-05

features.0.conv0.weight f4 [37, 1, 25]
000000 b2 bb 6b ba ec 09 d4 3d f7 00 35 be b0 a6 2e be
       -0.00089925074 0.10353455 -0.1767615 -0.17055774
000010 ca 42 ea bd 46 8c 60 3b d0 da 87 bd 4c 47 ac 3d
       -0.1143852 0.0034263297 -0.06633532 0.08412036
000020 fc f3 d8 bd 84 9b 37 bd 6a ac 28 be b9 4d 13 be
       -0.10593411 -0.044826046 -0.16472021 -0.14385118
000030 bd 28 94 be 36 52 5d be 68 22 1a be 1b 91 26 bd
       -0.2893733 -0.21613392 -0.15052187 -0.040665727
000040 40 d5 5a 3d 68 ce f4 3d 52 e4 e5 bd 9e ab 19 bd
       0.053426027 0.11953431 -0.11225189 -0.037517183
000050 be fd 14 3e b9 36 85 3e 96 9c 8d 3d 95 ea 8a 3e
       0.1454992 0.26018313 0.06914632 0.27132097
000060 db e3 ba 3d 20 68 42 3e bf be 86 3e cc 5a 03 3e
       0.09125491 0.18985033 0.26317403 0.12827605
000070 8a c7 53 3d 04 b4 06 3e 51 5b 13 be 54 85 88 bc
       0.051703967 0.13154608 -0.14390303 -0.016665138
000080 70 88 6d be 5a c4 71 be b6 81 55 be f9 36 98 bc
       -0.23196578 -0.23610058 -0.20850262 -0.0185809
000090 23 68 80 bc 59 2b 46 be 8c c0 ac 3c 09 d8 d8 3d
       -0.015674656 -0.19352473 0.021087907 0.105880804
0000a0 c4 d3 3d 3c bb 20 9e 3d 33 ad 13 3e cf 87 73 3e
       0.011586133 0.077210866 0.14421539 0.23782276
0000b0 2d 52 a1 3e ef 18 14 bd 58 21 07 3d f8 c1 2b 3e
       0.31508008 -0.03615659 0.032990783 0.16773212
0000c0 cf 49 72 3e 2e 54 64 3e 24 4f 8b 3e c9 97 da 3d
       0.23660968 0.22297737 0.27208817 0.10673482
0000d0 64 a7 02 be bb 58 5b 3d 2a 16 d8 bd 66 4d 3a be
       -0.12759167 0.053551417 -0.105511025 -0.18193588
0000e0 25 a3 2f 3e d7 0a 0c 3e 93 65 64 be 4d e1 9a 3c
       0.17152078 0.1367601 -0.22304372 0.01890626
0000f0 97 e6 2c bd 14 88 db bc 9b 13 93 bd 2c 55 d8 3d
       -0.042212095 -0.026798286 -0.07181474 0.1056312
000100 1c fe ad bd 24 06 c7 3d 0d a9 ea 3d 20 1d 06 3e
       -0.08495733 0.09717968 0.11458025 0.13097048
000110 43 b3 22 3d 33 74 85 be b9 c3 5c be 8d 66 14 bc
       0.03972174 -0.26065215 -0.21559037 -0.009057653
000120 ed ae 94 bd 31 e9 8b be 82 d8 5a be b2 b2 43 3e
       -0.07259927 -0.27326348 -0.21371654 0.19111136
000130 b9 3e ed 3d 8e 98 03 be 2b a4 e9 bd 05 33 8e be
       0.11584229 -0.12851164 -0.11408266 -0.277733
000140 c1 24 ec bd 5e fe 8d be e6 d9 91 be 38 03 07 be
       -0.11530448 -0.2773313 -0.28486556 -0.13184822
000150 22 ee 9c bd 04 72 31 be 8e 8e 36 3d 42 cb 35 be
       -0.07662608 -0.1732865 0.044569544 -0.17753318
000160 d1 ab 0d 3e 72 ef c6 3d c5 24 56 be e2 d1 b7 bd
       0.13835074 0.09713639 -0.20912464 -0.08975579
000170 13 14 ff bc ce 93 85 bc a9 32 04 bb 1b b4 97 3c
       -0.031137502 -0.01630583 -0.0020171797 0.018518498
000180 6c ce 66 bd d0 ce 32 be 4e 77 70 3c 63 f0 8a be
       -0.056349203 -0.17461705 0.014676882 -0.27136526
000190 1e fc 84 be f7 a5 40 be ef da 6e be dd 94 45 be
       -0.259736 -0.1881331 -0.23325704 -0.19295068
0001a0 80 df 8e be 80 b2 0e be 1a c5 09 bd fd 8b 26 be
       -0.27904892 -0.1393528 -0.033635236 -0.16264339
0001b0 5f f1 44 bc 05 a6 3b 3e a5 c7 6a 3d ab 3f f0 3d
       -0.012020438 0.1832505 0.057319302 0.11730894
0001c0 a7 b3 d6 3d 95 f3 37 3e 09 90 85 3e 60 78 a3 3e
       0.10483485 0.17964013 0.26086453 0.31927776
0001d0 a3 18 6b 3e 37 12 8a 3e 59 24 47 3d 83 f9 0e be
       0.22958617 0.26967022 0.04861865 -0.13962369
0001e0 08 a7 a3 bd 55 1e 06 3e da be b2 bc e7 2b f5 bd
       -0.07990843 0.13097508 -0.02181952 -0.11971264
0001f0 2a d6 34 be 7b 77 81 be 47 64 69 be e7 e8 e6 bd
       -0.17659822 -0.2528647 -0.22792159 -0.11274891
000200 f2 4e 2a 3d f8 dc e5 3c a3 43 8c be 50 34 f9 3c
       0.041579194 0.028059468 -0.27395353 0.030420452
000210 f2 30 7f be 33 28 10 be d6 67 2e be d7 ea 01 be
       -0.24921015 -0.14077835 -0.17031798 -0.1268724
000220 26 ab fd bd 42 41 88 be 75 4f 81 be 3d c5 e3 bd
       -0.123861596 -0.26612288 -0.25255933 -0.111216046
000230 92 47 93 bd e5 dd 22 be b6 67 98 3c 4a 61 63 be
       -0.07191385 -0.15904959 0.01860414 -0.22205082
000240 6e d5 44 bd 14 88 1e 3e c6 c3 d6 bd 94 23 25 3e
       -0.048055105 0.15481597 -0.104865596 0.16126853
000250 2e 4b 38 3d 10 9a 4e be 9f 12 94 3e 30 64 06 3e
       0.044993572 -0.20175958 0.28920457 0.13124156
000260 82 6e 2a 3d 8b e0 91 3e 4b b8 16 bd 8f e9 12 3e
       0.041609295 0.28491625 -0.03679685 0.14346908
000270 12 72 6e 3d 42 7f 6b 3e 1f dc 00 3e 0a b3 13 3e
       0.058214255 0.22997764 0.1258397 0.14423767
000280 a0 ff c1 3d 93 39 c8 bc 94 f5 30 bd fa 33 32 be
       0.09472585 -0.024441516 -0.04320295 -0.1740264
000290 a5 2b 8e 3d 9e 8b da 3d 5f e2 90 3d d6 02 5e be
       0.06941918 0.10671161 0.07074427 -0.2168077
0002a0 e5 7e b0 bd d2 74 7b be 5b 6c 80 be 38 7e 88 be
       -0.08617953 -0.24556282 -0.2508267 -0.26658797
0002b0 ee 1b c0 bd 60 34 8e be b4 f7 29 be 8b 39 2e 3c
       -0.09380327 -0.27774334 -0.16598397 0.0106338365
0002c0 0a 4d e0 3d 97 87 36 be 80 ba 4a be 1a 60 3d be
       0.10952194 -0.17825161 -0.19797707 -0.18493691
0002d0 b9 fe 66 3d 7d b0 0f be 5e 2f aa 3d 80 d2 3b bc
       0.056395266 -0.14032169 0.08309816 -0.011463761
0002e0 0b bb ad bd 18 5d f6 bd 64 75 3d be 4f 2c ee bd
       -0.08482941 -0.12029475 -0.18501812 -0.11629545
0002f0 66 ab 3e be c2 c9 00 be 4f be d4 bd 69 0d 94 be
       -0.18620071 -0.12576964 -0.10387861 -0.2891648
000300 07 9c 80 be 48 08 c8 3c cc 00 94 be f1 4e e2 bd
       -0.2511904 0.024418011 -0.28906858 -0.11050213
000310 f0 21 e9 3d ce 2f e3 bb 34 52 ae bd cb 46 82 be
       0.11383426 -0.006933189 -0.08511773 -0.25444636
000320 2b 07 c9 3d c6 be e3 bd 00 1e 85 bc df 46 86 bc
       0.0981582 -0.111203715 -0.016249657 -0.016391216
000330 49 75 07 3d f3 dd a0 3d f7 ba 7c 3e 10 5a 06 3e
       0.033070836 0.078548335 0.24680696 0.13120294
000340 41 3d 8a 3e 9c 18 6d 3e 63 e6 0f bd 0f 94 41 3e
       0.26999858 0.23153919 -0.035131823 0.18904136
000350 a8 90 86 bd 09 71 a5 bb e9 f7 d2 3d 47 75 e8 3d
       -0.0657056 -0.005048875 0.10301191 0.11350494
000360 df f9 17 3e b7 16 8c bd b8 ae 20 bd 77 22 73 3d
       0.14841412 -0.0684027 -0.039229125 0.05935904
000370 42 d6 8c be b6 b4 4d 3d a1 bd 98 be df ce 02 be
       -0.27507216 0.050221168 -0.29832175 -0.12774228
000380 7c 3d 46 be 5a ae 34 be 96 04 54 bd 01 86 ab 3d
       -0.19359392 -0.17644635 -0.051762186 0.083751686
000390 7f cb 24 be 0b ab 6a be 30 6c 49 be 2b 35 9d be
       -0.16093253 -0.2291681 -0.19670177 -0.30704626
0003a0 cf a2 c2 bc 50 29 5b be d8 41 8b be e8 fa 80 be
       -0.023759274 -0.21402478 -0.27198672 -0.25191426
0003b0 a9 a4 2d bc 91 78 a2 3b 66 14 48 3d 99 9f 27 bd
       -0.01059834 0.0049582203 0.04884758 -0.04092369
0003c0 f5 85 44 be 88 55 1f be 31 bd bf bc b2 5e dd 3d
       -0.19191726 -0.15559971 -0.023405643 0.10809077
0003d0 57 f6 fb bb 66 f0 23 be 8e 29 27 be f4 0f 70 be
       -0.007689278 -0.16009673 -0.16324446 -0.23443586
0003e0 0e fa 0d 3c dd 0f 02 be ef fc 54 be 99 1d 15 3e
       0.008665575 -0.12701364 -0.20799612 0.14562072
0003f0 04 e8 24 be 9b fa 72 bd 6d 45 04 3c c3 4d 52 bd
       -0.16104132 -0.059321027 0.008073193 -0.05134369

features.0.conv0.bias f4 [37]
000000 f3 50 42 bd 35 a7 0e 3e b3 c8 6b bc 30 64 ce 3d
       -0.04744048 0.13930972 -0.014391112 0.10077703
000010 b3 63 15 be 27 b0 6e bd 33 56 e2 bb 20 0e 77 3d
       -0.14588813 -0.05827346 -0.0069072484 0.060316205
000020 67 54 eb 3b 2f 86 2e be 9a 24 ce bb 1d d5 0d be
       0.0071816924 -0.17043374 -0.0062909843 -0.13850828
000030 32 dc 05 be 3d fb 40 be 0d 8e 91 3c 7a 25 e4 bd
       -0.13072279 -0.1884584 0.01776793 -0.111399606
000040 23 d2 2d 3e 90 53 27 be e7 73 9e bd 27 b7 98 bd
       0.16974692 -0.1634047 -0.0773695 -0.074568085
000050 77 03 bd 3d 80 06 3c be 52 53 4c 3e 53 66 46 3e
       0.092291765 -0.18361855 0.19953659 0.19374971
000060 4d ec ec bc 93 09 cf bd 6d 8f 1f 3d 68 e5 33 3e
       -0.02892127 -0.10109248 0.03895514 0.1756798
000070 e5 bf 1d be dd 7c 3e 3e 9a 5d 62 3b c0 6d e6 bc
       -0.15405233 0.18602319 0.0034540654 -0.028128505
000080 c0 0f 22 3e ea a1 e8 bd d7 d3 33 be e0 85 31 be
       0.1582632 -0.11359008 -0.17561279 -0.17336226
000090 73 ff 6f bd
       -0.058593225

features.0.conv1.weight f4 [243, 37, 1]
000000 50 ba a1 bd 8e 02 a6 bd c5 d9 89 bc b2 db 40 3e
       -0.078968644 -0.08105956 -0.016827473 0.18833807
000010 3e 47 a8 3d 10 57 c8 3d ce ef 01 3e 81 ff 16 be
       0.08216713 0.09782231 0.12689134 -0.14745905
000020 9c 8c eb 3d 0f b9 66 3b 6d d9 2b bd 4b dc a3 3d
       0.115014285 0.0035205518 -0.0419554 0.08001002
000030 a4 2c 86 3d 7e 8e e1 bd bd 6d 32 3d 5f c6 e6 3d
       0.06551483 -0.11013506 0.043561686 0.11268305
000040 30 27 c8 3d 6d 6d 1b 3e 9a e1 1a bd 31 54 29 be
       0.097730994 0.15178461 -0.037812807 -0.16536023
000050 a0 19 a6 3e 2e 96 ab 3d f6 c9 9a 3e 4a 36 7b be
       0.32441425 0.08378254 0.3023221 -0.24532428
000060 cd 04 d3 bd 57 56 eb bd 2a 58 be be e5 da 5b 3c
       -0.1030365 -0.114910774 -0.3717664 0.013418888
000070 96 2d a9 3c 4b 8c 41 3c bb 80 37 be 99 28 81 3e
       0.02065162 0.011813234 -0.179202 0.25226286
000080 d2 3b 8a be b6 d2 17 be 3d d8 1a be d2 38 a7 3d
       -0.26998764 -0.14826474 -0.15121551 0.081651345
000090 4a e4 27 be f0 f1 96 bb 78 75 1c 3e 6a 2f c5 bb
       -0.16395679 -0.004606478 0.15279186 -0.006017615
0000a0 88 f4 31 3e 06 46 89 3e 0c 20 45 3e 57 d8 d9 bd
       0.17378438 0.26811236 0.19250506 -0.10636967
0000b0 b9 29 1f bd a0 f1 4b bd a3 11 31 be 82 a5 5d bd
       -0.03885815 -0.04979098 -0.17291884 -0.05411292
0000c0 6c 6f bc 3d 5a b3 c1 3d d0 20 75 bd 4e 1a 68 bd
       0.092009395 0.09458037 -0.059845746 -0.05666571
0000d0 42 a3 67 bd 17 54 bd bd f0 f3 73 3d 02 e5 89 bd
       -0.05655218 -0.092445545 0.05955881 -0.06733133
0000e0 df b4 b1 bb ae b7 77 3b ae ed 83 3d 33 1c 05 3e
       -0.005423173 0.003779869 0.06441818 0.12999038
0000f0 ed 2f 3e bd 83 56 84 3e 95 55 6a be a6 4d 60 be
       -0.046432424 0.25847253 -0.2288421 -0.2190462
000100 cd 55 0e 3d ec fb da be fa 3e 30 be 41 eb 66 3d
       0.034749795 -0.42770326 -0.17211524 0.0563767
000110 f7 43 2d be b9 41 3d be 0a b5 ea ba 5b 22 f0 bd
       -0.16920458 -0.18482102 -0.0017906737 -0.11725303
000120 f3 a1 44 bc 87 79 0a be d6 3b 5f bd 94 e0 d9 bd
       -0.012001502 -0.13522922 -0.054500423 -0.10638538
000130 fc 0b 6e bc e6 e7 31 be 8e 3c 18 3e 26 29 83 bd
       -0.0145292245 -0.17373618 0.1486685 -0.06404333
000140 25 9b 8f be c8 6f 17 3e 0d fe dc bd ef 75 e1 bd
       -0.28048053 0.14788735 -0.10790644 -0.11008822
000150 04 82 a1 3d c6 f7 12 3d 70 48 d1 3d 14 57 fb 3d
       0.07886127 0.035880826 0.102188945 0.12272468
000160 70 26 16 be 13 8c 90 3c 20 83 62 bd c4 a8 32 3e
       -0.146631 0.017644918 -0.05530083 0.17447191
000170 48 d8 6d be c7 65 9b 3d 20 16 a0 bc f5 5a 9a 3c
       -0.23227036 0.07587772 -0.0195418 0.0188422
000180 8f 66 ae be 1b b0 61 3e e4 38 48 be d0 0f a6 3d
       -0.3406262 0.22039835 -0.19552952 0.08108485
000190 d7 4c e3 bd 39 e6 35 3e 0c 8d 8e 3e 91 0b 6c be
       -0.110986404 0.17763604 0.27841985 -0.23051287
0001a0 0d a8 a8 bd df 72 a1 3e a3 97 df be 44 34 9f be
       -0.08235178 0.31532952 -0.43670377 -0.31094563
0001b0 92 aa 86 3e be ec 07 bd 91 cb 29 3d 20 ba e7 bd
       0.2630201 -0.03318476 0.0414539 -0.113147974
0001c0 85 d9 7c bd ca 2c 16 3e bf db 1b 3e d4 3e 70 be
       -0.06173088 0.14665523 0.15220545 -0.23461467
0001d0 f7 5f b2 3d 73 a7 01 3e 8a 01 0b be 49 6e df 3d
       0.0870971 0.12661533 -0.13574806 0.10909707
0001e0 33 7f 18 be 3a f6 d4 3d 4b 65 8b be c8 7a 81 be
       -0.14892273 0.103985265 -0.27225718 -0.25288987
0001f0 23 50 36 3d 9d 2c 10 3d d0 6a a5 3d e8 5e d6 bc
       0.044510018 0.035198797 0.080770135 -0.026168302
000200 39 6a 98 bc dc 5d 1c be ff c7 86 bc dd 41 06 3d
       -0.018605338 -0.1527018 -0.016452787 0.032777656
000210 a2 ac 93 3e 3a 7d 97 be 0f 37 08 be ba d1 3f be
       0.28842646 -0.29587728 -0.13302253 -0.18732348
000220 ef 01 42 bd 8a 85 b6 bd eb ae ac 3e f3 07 bb 3c
       -0.047365125 -0.08912189 0.33727202 0.022830939
000230 b1 3f 6d 3e f3 2c 45 3e a7 1d 05 bd 81 15 1f be
       0.23168828 0.19255428 -0.03249898 -0.15535547
000240 6a a8 b0 3c 42 66 50 bc 75 d0 13 bc bb e3 95 bd
       0.021564681 -0.012719693 -0.009021868 -0.07318827
000250 5e 1d 1a be 01 d8 2f be 6c b3 25 be d3 b0 90 be
       -0.15050265 -0.17172243 -0.16181725 -0.28259906
000260 3b 78 98 be 88 72 f7 bc 9c 51 b2 3c 54 4d 8a 3e
       -0.2977923 -0.03020598 0.02176743 0.27012122
000270 aa 5d eb 3d f3 07 eb 3d 02 fd 3b 3e 44 88 81 3d
       0.114924744 0.114761256 0.18358234 0.06324819
000280 6a c1 00 be b9 00 8e 3e 76 fc 00 3e d3 2b 1e 3e
       -0.12573782 0.27734926 0.12596306 0.15446405
000290 ef 7f 78 be 4b fe a0 3d ea 1d 3b 3d b4 73 ba bc
       -0.24267553 0.078610025 0.045682825 -0.02276025
0002a0 8f 45 a7 bc c4 a6 2e bb 22 30 bf bd a5 91 26 bd
       -0.02041891 -0.0026649693 -0.093353525 -0.04066624
0002b0 c3 35 a7 3c 19 f9 0d 3e 93 44 38 3e 7a d8 ff 3d
       0.020411378 0.13864554 0.17994909 0.124924615
0002c0 f0 43 8d 3d 8c a6 e6 3d 6f f3 5d be b0 45 2c 3e
       0.06897724 0.11262235 -0.21674894 0.16823459
0002d0 07 a2 0c be fd 9c 25 3e 94 fe 51 3e f2 f7 86 3e
       -0.13733684 0.16173168 0.2050727 0.26361042
0002e0 c7 18 36 bd 73 34 0a be 00 c8 d5 3c 0c 24 95 be
       -0.044457223 -0.1349657 0.026096344 -0.29129064
0002f0 ac 12 37 be b2 ac 94 3d 15 a1 e8 bd 74 4c a0 be
       -0.17878217 0.072595015 -0.11358849 -0.3130833
000300 12 9d a5 be 5c f3 47 3d ca a8 5a be dc 5c 4f be
       -0.32346398 0.04881607 -0.2135345 -0.20250267
000310 a6 f3 65 3e 7b ad 36 3d 48 2f 3e bd 21 ec 88 bd
       0.22456226 0.044599038 -0.04643181 -0.06685663
000320 86 95 84 3d 16 5b 77 bd d6 f4 7f bb 99 9e c5 3d
       0.06473832 -0.0603896 -0.0039055846 0.09649391
000330 d3 44 62 be 25 0a 71 3d d6 93 6b bd 99 d7 e9 3d
       -0.22096567 0.058847565 -0.057514034 0.11418075
000340 45 72 3d ba f3 01 56 bc 2a 7a 7b bc 73 50 16 be
       -0.00072268053 -0.013061988 -0.01534895 -0.14679126
000350 2f 74 9f 3d 74 2b 1c be 0f 24 41 3e 04 0d b6 3d
       0.07785832 -0.15250951 0.18861412 0.08889201
000360 00 bd fe bd 98 7d 5b 3e 1f b1 ba bd 1e bf 19 bd
       -0.12438393 0.21434629 -0.091158144 -0.03753578
000370 da 9a 1b bd 99 15 83 3d f7 3d 9e 3e e3 ea f8 be
       -0.037989475 0.06400604 0.3090665 -0.48616704
000380 57 61 ac 3e f3 27 48 3e e7 ed 18 3e 88 83 83 bc
       0.33668014 0.1954649 0.14934503 -0.01605393
000390 48 50 80 be b9 5e 8d be 9e 07 a9 3d 57 a1 8e bd
       -0.2506125 -0.2761133 0.08253406 -0.06964367
0003a0 e2 19 49 3e 28 1e 50 be 27 e2 e1 bc 60 e6 1c bd
       0.1963878 -0.20324004 -0.027573658 -0.03830564
0003b0 12 8e 50 3d 7b a8 95 3d b2 0e 14 3d d5 17 24 bd
       0.05091674 0.07307526 0.036146827 -0.04006179
0003c0 4e 3c 44 3d e9 bc 11 3e fd b3 c0 bc ad 2f a9 bc
       0.047909074 0.1423222 -0.023523325 -0.020652616
0003d0 87 e5 90 bd bd e1 c8 3d 84 5e 29 3b 2e 55 4b bd
       -0.07075029 0.09808681 0.002584369 -0.04964178
0003e0 9b fc 6c bd 65 e3 92 bd b2 91 3a bd 8d e1 48 3e
       -0.05785809 -0.07172278 -0.045549102 0.19617291
0003f0 59 32 00 3d db e9 d1 3d 89 8b 05 bd 84 52 f2 bc
       0.031298015 0.102496825 -0.032603774 -0.029580362

features.0.conv1.bias f4 [243]
000000 f9 65 0c bc ac c1 58 3d d1 76 23 3d b4 b1 26 bc
       -0.008569234 0.052919075 0.039908234 -0.010174204
000010 5e 43 0e 3e f4 1c bd 3d 2c ba d2 bc 3c f1 dd bd
       0.13892886 0.09234038 -0.02572354 -0.108370274
000020 8d 92 d4 bd 1b 64 30 bd f1 8b 01 3e 73 78 ab bd
       -0.10379515 -0.043064218 0.1265104 -0.08372583
000030 c9 a7 25 3e e7 fa b4 3d 5e 3e 69 bc 2e 93 1d be
       0.16177286 0.08836918 -0.014236061 -0.15388176
000040 04 c0 8f 3c 27 75 c4 3d 83 ea a3 3d 10 70 02 bb
       0.017547615 0.095926575 0.08003714 -0.001990322
000050 ac 9b 95 bd 4f bc d4 3d 5c 21 aa bc 35 11 17 3e
       -0.07305083 0.103874795 -0.02076786 0.14752658
000060 b6 d0 a0 bd d9 d6 35 bd a4 7e 19 3e c2 f1 c8 3a
       -0.078523085 -0.044394348 0.14989716 0.0015330839
000070 12 c2 8f 3c 77 dc 20 be 7a b8 e4 bd 0d fd c2 3d
       0.017548595 -0.157091 -0.111679986 0.09520922
000080 94 ef a8 3d 13 30 e1 bd 46 44 b2 3d 44 44 4b 3d
       0.08248821 -0.109954976 0.087044284 0.04962565
000090 b6 f2 c1 bd b5 32 68 bd ce ac dd 3d 29 bd 73 bd
       -0.094701216 -0.056688983 0.108239755 -0.05950657
0000a0 3e 20 fa 3d 79 af 95 3d 15 46 02 bd 16 a2 36 bb
       0.12213181 0.073088594 -0.031805117 -0.0027867607
0000b0 cf b9 c9 3d 3a 96 84 3c 4d 71 32 bc 7b 2c 56 3d
       0.09849893 0.016184915 -0.010891271 0.052288514
0000c0 9e 42 0f bc 84 9d f2 3d 5c 27 c6 bd 9e 50 09 be
       -0.00874391 0.1184645 -0.09675476 -0.1340966
0000d0 f3 a4 8b 3d 45 7d c6 3d 56 35 b5 3d 22 85 5a bd
       0.06818571 0.09691862 0.08848064 -0.05334962
0000e0 6c fd 7f 3d 31 59 19 3e 45 95 19 3e 8c ce f9 3b
       0.06249754 0.1497543 0.14998348 0.0076234993
0000f0 23 62 e5 bd 40 5e 44 bb 23 ff c9 bd 65 3f 1f be
       -0.11200359 -0.0029963404 -0.098631166 -0.15551527
000100 09 c3 13 3e 6a a4 03 bd 19 16 83 bd 33 9f 57 bd
       0.14429869 -0.03213922 -0.06400699 -0.05264206
000110 38 0d 03 3e 55 71 c5 bd 18 dc 82 bd 62 0a aa 3c
       0.12798011 -0.09640757 -0.06389636 0.020756904
000120 ec 69 b5 bd cf fa 15 be ce 1a 8b bd ee ef d2 3c
       -0.088580936 -0.14646457 -0.06792222 0.025749173
000130 63 bc a2 bd b3 88 0c be 9d 9b f3 bd 3e 41 9e 3d
       -0.07946088 -0.13724022 -0.11894915 0.07727288
000140 ca b0 f9 3c 2b 19 0b 3e b4 a2 d6 3d 0f 7c 00 be
       0.030479807 0.1358382 0.10480252 -0.12547325
000150 64 40 d7 3d 97 38 92 bd 82 29 b9 3d 80 b1 f4 3d
       0.105103284 -0.071397 0.0904112 0.11947918
000160 28 d6 03 be e9 85 a8 bb ce 61 cc bd c9 45 b3 bd
       -0.12874663 -0.0051429165 -0.09979592 -0.08753545
000170 67 91 f2 3c 52 1d a1 3d 1a 08 1e 3d 4f a0 e0 bd
       0.029610349 0.078669205 0.038581945 -0.109680764
000180 a4 e0 7e 3c 5d d6 56 3d ab 84 e4 3d 3b c3 b8 3c
       0.015556488 0.052450527 0.11158117 0.02255403
000190 b0 de fc bc d8 99 9e 3d 57 7d 9e bc c3 52 50 3d
       -0.030867904 0.07744187 -0.019346876 0.050860178
0001a0 30 93 d5 bd fb 12 23 3e 33 ae a8 3d 32 f9 0b be
       -0.104284644 0.15925209 0.08236351 -0.13669279
0001b0 d9 a5 d9 3d a8 3e dc bd 9a 86 c7 3c 2d 69 f5 3d
       0.10627336 -0.10754138 0.024356175 0.11982951
0001c0 ff 10 79 3d bb 34 cc bd 6a b0 87 bd d3 e6 cb 3d
       0.060807224 -0.09970995 -0.06625445 0.099561356
0001d0 e5 50 28 be a3 3a de 3d 34 03 cb 3c ec 7e 00 bd
       -0.16437109 0.10851028 0.0247818 -0.031371042
0001e0 93 e9 04 3e 9b 27 9d 3d 58 66 19 3e e9 c5 8b bd
       0.12979726 0.0767357 0.14980447 -0.06824858
0001f0 62 f5 21 be e1 ba 37 bb 4b 44 ab bd 13 61 08 be
       -0.15816262 -0.0028034972 -0.08362635 -0.13318281
000200 5c 75 35 bd 7c 2a cb bd 49 6e 85 bd 3a d3 19 3e
       -0.044301376 -0.099202126 -0.06515176 0.15021983
000210 a3 d4 22 be 39 ea 83 3c e4 03 04 bd 25 b5 4b bd
       -0.15901427 0.016102897 -0.032230273 -0.0497333
000220 f1 a0 0f 3d 12 4b fd bb 65 42 41 bd a6 4c d8 3d
       0.035065595 -0.0077298963 -0.04718246 0.105614945
000230 7b 48 17 be 43 bd 43 3d 66 02 98 bd 09 b8 5e 3c
       -0.14773743 0.047787916 -0.074223325 0.013593682
000240 f3 98 49 bd ce e3 d2 bc 5a 24 39 bd fe 16 53 3d
       -0.04921813 -0.025743391 -0.045200683 0.0515356
000250 d3 2a ee 3d c9 df bd bd b9 42 91 3c 7b 10 c6 3d
       0.11629262 -0.09271199 0.017732011 0.09671112
000260 55 4f 4c bd 12 3d 94 3d f9 32 b9 bd 86 c5 ab 3c
       -0.049880344 0.07238211 -0.090429254 0.02096821
000270 a4 20 c9 bd 15 ff 8e 3d 0c aa b5 3c bf cb 8a bd
       -0.09820679 0.06982247 0.022175811 -0.06777143
000280 89 c1 c7 3c c4 e6 e5 bd 63 76 6d 3d 6d a7 14 bd
       0.024384277 -0.11225656 0.05797423 -0.036292482
000290 65 cc 0c 3d 74 bc 05 be 6a 4e ba 3d ce 9c e4 3c
       0.034374613 -0.1306017 0.090969875 0.027906802
0002a0 19 73 65 bc 94 6d 1c 3d cc 3e 8f 3d 64 93 84 3d
       -0.014004492 0.03819044 0.069943994 0.06473425
0002b0 c3 bb ea 3d a2 22 93 3d 45 71 e9 3d 58 dd f1 3c
       0.11461594 0.0718434 0.113985576 0.02952449
0002c0 fb bd 2f 3d ed d9 97 bd dd c2 44 3c b8 5b 86 3b
       0.04290579 -0.07414613 0.01200935 0.004100289
0002d0 d1 bc 07 3e 86 19 fd 3d 19 45 58 bd de a8 44 3d
       0.13255621 0.12358384 -0.05280027 0.048012607
0002e0 86 5d 23 3e 8c ba 8e 3d af db 32 3d 72 1e da bb
       0.15953645 0.06969175 0.043666538 -0.0066564614
0002f0 bc d6 ab bd 71 64 8b bb c4 35 22 3d a6 b1 04 be
       -0.08390567 -0.004253917 0.039602056 -0.12958393
000300 18 fd f1 bd 18 c8 e9 bc fa ad 1f 3e a9 5d 8a 3d
       -0.11815852 -0.028537795 0.1559371 0.067561455
000310 ea be ac bc 46 1a ff bd 56 00 48 3c 85 7d 26 be
       -0.021087129 -0.12456183 0.012207111 -0.1625882
000320 f7 97 b9 bb be e3 3c 3c ec b6 24 3e 7e a9 1b bc
       -0.0056638676 0.011528907 0.16085404 -0.009500859
000330 63 48 6e 3d 5a 7f 82 bb e9 d8 aa 3d 6f 7c 06 3c
       0.058174502 -0.0039824666 0.083421536 0.008208378
000340 1c 7d 17 be 91 43 43 3c 40 23 0f be 97 48 d0 bd
       -0.14793819 0.011917965 -0.1397829 -0.101700954
000350 f5 12 c8 3d 42 99 21 bd b8 51 17 be ed 3a 00 3e
       0.09769241 -0.0394528 -0.14777267 0.12522478
000360 e4 cd 21 3e 33 5d a6 3b cc cd dc 3d a8 a5 02 3b
       0.15801197 0.005077028 0.1078144 0.0019935165
000370 49 6e 91 3d c4 16 9d 3d 2b 6a cc 3b 79 83 15 3d
       0.07101113 0.07670358 0.006238242 0.036502335
000380 a1 02 61 3d 43 d2 25 3d 10 70 02 3b 23 73 29 3c
       0.054934148 0.040483724 0.001990322 0.010342392
000390 9b 9a f6 bc e0 e3 d8 bd 47 24 34 3d 15 34 fc bc
       -0.030103019 -0.10590339 0.04397991 -0.030786553
0003a0 30 2c 17 3e e6 dc ea bd da 5f 28 bd 31 34 98 3d
       0.1476295 -0.11467914 -0.041107036 0.0743183
0003b0 f9 cc bd 3d d3 a0 15 be f7 97 75 bd 42 09 08 3e
       0.09267611 -0.14612131 -0.059959378 0.13284782
0003c0 6c fc be bc fd f3 43 bd 0a a9 9f bb
       -0.023313724 -0.047840107 -0.004872446

features.0.bn.weight f4 [243]
000000 0b 6a 81 3f 7e ff 7a 3f 42 04 88 3f 0b 26 86 3f
       1.0110487 0.980461 1.0626299 1.048036
000010 9b 24 94 3f 63 7d 7a 3f 85 54 72 3f 13 11 72 3f
       1.1573671 0.97847575 0.94660217 0.94557303
000020 bf 6c 6f 3f a4 52 66 3f 7f 15 68 3f 48 3d 8e 3f
       0.9352531 0.8996985 0.906578 1.1112452
000030 74 fb 95 3f cb ab 92 3f 06 9c 87 3f f3 15 76 3f
       1.1717362 1.1458677 1.059449 0.9612724
000040 d6 99 ac 3f b8 d9 65 3f 4b d3 81 3f 3b 02 93 3f
       1.3484447 0.8978534 1.0142606 1.1485056
000050 8f 2a 87 3f 0d ec 5d 3f 46 5f 7a 3f 0a 7b 82 3f
       1.0559863 0.8668831 0.97801626 1.0193799
000060 83 54 79 3f 1d db 59 3f bf 5a c3 3f 1d 56 71 3f
       0.9739458 0.85099965 1.5262069 0.94272023
000070 92 f4 ae 3f 64 51 92 3f 7b f9 70 3f 70 1d 81 3f
       1.3668387 1.1431088 0.94130677 1.0087109
000080 ca 0a cd 3f f4 92 80 3f 5f bc 83 3f ba de 83 3f
       1.6018918 1.0044847 1.0291861 1.0302346
000090 23 28 8d 3f d9 24 84 3f 3a a3 9d 3f 5f f7 87 3f
       1.1027874 1.0323745 1.2315438 1.0622367
0000a0 98 28 79 3f 9c 1a 94 3f 1c 6c c1 3f 58 11 86 3f
       0.97327566 1.157062 1.5111117 1.0474043
0000b0 ef 83 a3 3f 87 90 75 3f 51 c8 80 3f 86 47 88 3f
       1.2774638 0.95923656 1.0061132 1.0646827
0000c0 9d 2a 88 3f d5 bd 75 3f d9 63 8a 3f 9a 53 82 3f
       1.0638005 0.95992786 1.0811721 1.0181763
0000d0 f7 3b 93 3f 07 29 83 3f c1 47 68 3f a7 4a 82 3f
       1.1502675 1.0246896 0.9073449 1.0179032
0000e0 9b e6 7f 3f 51 26 9f 3f 55 7a 73 3f 98 48 8b 3f
       0.9996125 1.2433568 0.9510854 1.0881529
0000f0 ed af 6d 3f df 66 79 3f aa 7b 63 3f 5a 1c 85 3f
       0.92846566 0.97422594 0.8886057 1.0399277
000100 4b d7 6c 3f 0b 3e 79 3f b4 37 92 3f 78 75 90 3f
       0.9251601 0.97360295 1.1423249 1.1285849
000110 d9 c5 ae 3f da 98 5f 3f 2a a5 7d 3f 9e d1 7b 3f
       1.3654128 0.8734261 0.99080145 0.98366725
000120 63 7e 85 3f dd e5 71 3f a5 3d 84 3f 96 72 8d 3f
       1.0429195 0.9449137 1.0331312 1.1050594
000130 a2 45 86 3f 8f 91 80 3f b1 ef 79 3f 81 51 84 3f
       1.049 1.0044421 0.97631365 1.0337373
000140 a5 d9 a9 3f b7 98 a3 3f 27 d2 60 3f 24 f1 65 3f
       1.3269545 1.278098 0.8782067 0.89821076
000150 ec 2b 78 3f ac 2c 79 3f 0d d1 8c 3f 34 70 8b 3f
       0.9694202 0.9733379 1.1001297 1.0893617
000160 73 3e 83 3f 0a a5 69 3f 9b 9b 83 3f 04 4f ac 3f
       1.0253433 0.91267455 1.0281862 1.3461614
000170 59 40 78 3f 25 e2 a2 3f a0 5e 81 3f 06 e9 9d 3f
       0.96973187 1.2725264 1.0107002 1.2336738
000180 1f b3 74 3f 9d a6 82 3f e8 e4 7b 3f 57 20 8a 3f
       0.9558582 1.0207096 0.9839616 1.0791119
000190 ec 26 77 3f 06 c8 85 3f 93 d5 87 3f 54 7d ac 3f
       0.96543765 1.0451667 1.0612053 1.3475747
0001a0 f8 67 83 3f 08 02 89 3f d2 92 7c 3f e9 48 69 3f
       1.0266104 1.0703745 0.9866153 0.9112688
0001b0 3b 30 5f 3f af 39 95 3f 68 bf 87 3f ab c8 79 3f
       0.8718297 1.1658229 1.0605288 0.9757182
0001c0 a2 bc 78 3f 8d fa 78 3f 54 7d ac 3f df 53 80 3f
       0.9716283 0.9725731 1.3475747 1.0025595
0001d0 17 b6 74 3f 46 91 9e 3f 1a 24 a5 3f 39 e6 85 3f
       0.9559035 1.2388084 1.2901642 1.0460883
0001e0 d7 ec 85 3f 26 43 89 3f ba 49 69 3f ff 75 ac 3f
       1.0462903 1.0723617 0.9112812 1.347351
0001f0 ce 87 83 3f c5 70 81 3f 61 ef 82 3f 1e c6 8d 3f
       1.0275819 1.011254 1.0229303 1.1076086
000200 8c d7 8e 3f 86 ab 7b 3f 76 fc 82 3f 27 f0 63 3f
       1.115953 0.983086 1.0233295 0.8903832
000210 3c 90 6b 3f 56 7e 84 3f 9c c9 7a 3f 90 69 6a 3f
       0.9201696 1.0351055 0.9796388 0.91567326
000220 a8 62 a3 3f 21 04 8a 3f 3a ac 89 3f 8f dd 69 3f
       1.2764482 1.078251 1.0755684 0.91353697
000230 3c 43 6e 3f aa 5d 81 3f e7 8c 6b 3f 2d 91 67 3f
       0.9307134 1.0106709 0.92011875 0.90455896
000240 3c 2d 90 3f ab 70 76 3f 82 0e a9 3f 6e e3 8b 3f
       1.1263804 0.9626567 1.3207552 1.0928781
000250 a6 d7 79 3f 65 37 79 3f 52 fd 78 3f d9 aa 60 3f
       0.9759468 0.9735015 0.97261536 0.8776069
000260 70 ed 73 3f fb 58 75 3f ba f5 9a 3f 78 53 82 3f
       0.95284176 0.958389 1.210624 1.0181723
000270 7a 8c 80 3f 74 f6 8e 3f 7d 1d 9e 3f 7d c3 7a 3f
       1.004287 1.1168962 1.2352749 0.9795454
000280 79 dd 7e 3f 03 a7 77 3f b4 5a 78 3f f4 86 5b 3f
       0.9955669 0.96739215 0.970134 0.857528
000290 26 40 78 3f 35 b7 7c 3f f2 d8 75 3f db 31 89 3f
       0.9697288 0.9871705 0.9603416 1.071834
0002a0 04 66 7a 3f fb 83 9e 3f a2 72 62 3f ef 54 a1 3f
       0.97811913 1.2384027 0.88456166 1.2604045
0002b0 20 a5 7c 3f f7 58 a3 3f 5a ab 7f 3f d8 5a 82 3f
       0.9868946 1.2761525 0.99870837 1.0183973
0002c0 4f b4 85 3f de d3 79 3f 0a 82 7d 3f 1b 0f 81 3f
       1.0445651 0.9758891 0.9902655 1.0082735
0002d0 56 e1 68 3f df c9 b4 3f fb 97 82 3f f6 e8 84 3f
       0.90968835 1.4124106 1.0202631 1.0383594
0002e0 c0 54 67 3f e8 0a 98 3f a4 50 6a 3f 3c d8 71 3f
       0.90363693 1.1878328 0.915293 0.9447057
0002f0 93 94 74 3f a6 46 75 3f a7 67 84 3f 82 0f 6b 3f
       0.95539206 0.95810926 1.0344132 0.9182054
000300 28 c7 7c 3f 84 b3 85 3f 59 49 97 3f 05 da 89 3f
       0.9874139 1.0445409 1.1819259 1.0769659
000310 6c 2d 7c 3f 9c 4d 97 3f 57 d8 83 3f 0e 8e 6d 3f
       0.9850681 1.182056 1.0300397 0.92794883
000320 37 18 94 3f 32 be 87 3f ff 8a 7f 3f f8 2a a5 3f
       1.156989 1.0604918 0.99821466 1.2903738
000330 e7 56 6d 3f ec f3 6e 3f 3a 8d 84 3f 54 66 79 3f
       0.9271073 0.93340945 1.0355599 0.97421765
000340 68 2b 82 3f 7f 38 82 3f 10 ed 97 3f bb b9 86 3f
       1.0169497 1.0173491 1.1869221 1.052543
000350 41 99 80 3f b0 37 71 3f 43 45 8d 3f 0f 76 7e 3f
       1.0046769 0.942256 1.1036762 0.99398893
000360 1f e1 83 3f 05 a1 88 3f 00 4f 76 3f f4 63 82 3f
       1.0303077 1.0674139 0.96214294 1.0186753
000370 07 f4 98 3f 7a 8f 76 3f eb 49 6e 3f c1 60 83 3f
       1.1949471 0.9631268 0.9308154 1.0263902
000380 6c 1e 7a 3f 74 c5 7e 3f 1f b7 79 3f 3d 7c a9 3f
       0.9770267 0.9952004 0.97545046 1.324104
000390 a7 bf 90 3f f4 39 86 3f 37 98 67 3f bb 14 68 3f
       1.1308488 1.0486436 0.90466636 0.9065663
0003a0 19 6f 87 3f 53 99 82 3f e9 99 87 3f df 15 80 3f
       1.0580779 1.0203041 1.0593845 1.0006675
0003b0 47 8b 72 3f fd ac be 3f 72 99 69 3f 1b db 76 3f
       0.9474377 1.4896542 0.91249764 0.9642808
0003c0 d8 f3 83 3f b7 a6 7e 3f 13 ff 83 3f
       1.030879 0.99473137 1.0312217

features.0.bn.bias f4 [243]
000000 fd af 13 bd b2 8b e7 3d 30 a6 0d 3e ba 92 8e 3c
       -0.036056507 0.11305942 0.13832927 0.017403949
000010 3c a1 de 3d b6 ab 2c 3e 05 18 aa bc 3e ef 9a 3c
       0.10870597 0.16862378 -0.020763407 0.018912908
000020 cf 27 67 bd f4 66 e3 3c 15 2d a7 3d 2a 79 7c bd
       -0.05643445 0.027759053 0.081628956 -0.06163899
000030 c0 9b 85 3e 65 6c e7 3c fb 1c 2a bd d3 1f 01 3d
       0.2609539 0.028249929 -0.041531544 0.03152449
000040 81 ac 8a 3c f1 fa 56 3d b9 e8 79 3d 5b da 44 3d
       0.01692796 0.05248541 0.061012957 0.048059803
000050 e2 37 0a 3d 91 fa 6a 3d a8 50 0b 3d 4f 7a d0 bd
       0.0337447 0.057367865 0.034012467 -0.101795785
000060 9e 36 1c 3e 38 cd 03 3e a1 47 e4 3b 2f 71 00 3e
       0.1525521 0.12871253 0.0069665466 0.12543176
000070 ee fe c2 3d 55 ef 57 3d b5 16 c9 3d b9 91 25 3d
       0.0952128 0.05271848 0.09818784 0.040422175
000080 ab ec 9c 3a 38 63 28 3e 22 30 03 3d 01 b8 f0 bb
       0.0011972388 0.16444099 0.032028325 -0.0073461537
000090 70 d9 54 3e dd f1 05 3e 15 13 07 3e 03 68 bd bb
       0.20786071 0.13080545 0.13190873 -0.0057802214
0000a0 ca 4d 93 3d 4d fc 77 3e 5c da 2b 3c 57 ef 4e bd
       0.071925715 0.24217339 0.010489073 -0.05052122
0000b0 f9 19 0f 3e fc 50 b5 bb d9 d0 e2 bd 5b 96 84 bb
       0.13974752 -0.0055333357 -0.11074991 -0.004046244
0000c0 46 26 bc bc 0f 65 0a 3e 3e 57 13 bd df 37 2d bd
       -0.022967469 0.13515113 -0.035971873 -0.04228961
0000d0 b8 6b e4 3d 0f bd 62 3d 4b 4e 05 3c e9 29 ac bd
       0.11153358 0.05535608 0.008136342 -0.08406431
0000e0 11 48 49 3d a8 0b 2b 3d 33 6c bb bd b5 e7 ae 3c
       0.049140994 0.041759163 -0.09151497 0.02135072
0000f0 48 d2 10 3e a0 a8 01 3e 84 d7 1e bd e4 bb 0b 3e
       0.14142716 0.12661982 -0.03877975 0.13645893
000100 6f 65 15 3e 00 01 36 3d 64 bc 16 3c e5 9d 85 bd
       0.14589475 0.044434547 0.009200189 -0.065242566
000110 75 63 87 3d 4b 3c 81 3c 25 c0 71 bd 94 aa 78 3d
       0.06610767 0.01577582 -0.059021134 0.06070955
000120 9d a5 5d b8 40 3f d8 bc f0 52 30 be 64 a2 e4 b9
       -5.2844745e-05 -0.026397347 -0.17219138 -0.0004360854
000130 da c4 0b be f1 d5 18 3e 7e e1 dd 3c 13 50 96 3c
       -0.13649312 0.14925362 0.027085062 0.01834873
000140 0e 48 90 3d d4 e5 ee 3d f1 93 eb 3d c2 5b 29 3d
       0.07044993 0.1166493 0.11502827 0.041347273
000150 ef 90 eb 3c f5 1f 25 3d fa 93 8b 3d 9f 06 e1 3d
       0.028755633 0.04031368 0.06815334 0.10987591
000160 ff 43 0e 3d af 0a d8 3c 63 da cf 3d 34 b2 cf bd
       0.034732815 0.026372282 0.10149076 -0.101414114
000170 97 fc b4 bd 34 d6 4d bd 24 f4 54 3d 83 93 cd 3d
       -0.0883724 -0.05025311 0.051990643 0.10037901
000180 50 19 d2 3d 47 f0 1c bd 61 ba eb bd b3 ad 88 3d
       0.10258734 -0.038315084 -0.11510158 0.066737555
000190 25 7d 94 3c ee f9 3c 3d f6 1e b1 3d 0d b9 f3 bd
       0.01812608 0.04613679 0.086484835 -0.1190053
0001a0 b5 03 6d 3d 95 6c c3 3d 57 63 41 3c df 23 12 3d
       0.057864863 0.09542195 0.01180347 0.03567874
0001b0 1f ae 30 3e eb 39 bf 3d c3 9d e4 bd 05 e3 19 3d
       0.17253922 0.09337219 -0.11162903 0.03757002
0001c0 67 9c 1b 3e 93 b1 cb 3d 37 ca ad 3d 65 71 47 bc
       0.15196382 0.09945979 0.08485835 -0.012173031
0001d0 86 c3 ea bd bc 57 e4 3d c3 cf 8a 3d 2b 08 cb 3d
       -0.114630744 0.111495465 0.06777909 0.09913667
0001e0 ac 70 01 3e e1 6c e1 bb 13 ba 56 bd 82 81 cc 3d
       0.12640637 -0.0068794345 -0.052423548 0.09985639
0001f0 da 43 09 3e 32 c5 53 bc 76 e1 aa bd bf f4 d5 3d
       0.1340479 -0.012925433 -0.083437845 0.10447072
000200 0b ee 74 3d 60 f1 06 bc 8a 25 43 3e 19 ad 01 bd
       0.059797328 -0.008236259 0.19057289 -0.03165922
000210 91 f4 36 3e 83 35 d9 bc 47 04 d2 3d 23 f7 8c 3c
       0.17866732 -0.026514774 0.10254722 0.017207688
000220 87 9c bf 3d d0 7b f8 bb 90 2d 03 3d 29 ca 7d 3c
       0.09356027 -0.007583119 0.032025874 0.015490093
000230 22 a0 2b 3e a1 81 de bc 73 29 c2 3c 08 38 5a 3d
       0.16760305 -0.027161421 0.023701405 0.05327609
000240 0c 81 ac 3d 75 0d f0 3d 10 c7 8e 3e d4 4c 91 3e
       0.08423051 0.11721317 0.27886248 0.28378928
000250 2e b6 ee 3d cd 7b ce 3d b3 75 3d bc 55 6f 13 bd
       0.11655842 0.10082207 -0.011563706 -0.035994846
000260 86 bd 18 3d 7d 47 1e bd 6c e2 90 3d a6 e6 f5 3d
       0.03729012 -0.038642395 0.070744365 0.12006883
000270 4e 69 96 3d fc 9e c4 3c 6b 69 1b 3e 67 d3 5d 3d
       0.07344304 0.02400159 0.15176933 0.054156687
000280 ad 76 51 3d dd bb 95 bc 9d 6c 15 3d 89 35 52 3d
       0.05113857 -0.018278057 0.036480535 0.051320586
000290 04 64 3e bc 25 86 62 3c c8 83 27 3e 25 38 51 3a
       -0.011620525 0.013825928 0.16358864 0.00079810835
0002a0 6a 45 db 3d b8 18 54 bd cd 61 4e 3d 43 b9 a9 3c
       0.10706599 -0.051781386 0.05038624 0.020718222
0002b0 f3 23 b9 3c c4 05 7a 3d fe fd 4f bc 6b 35 e4 3d
       0.02260015 0.061040655 -0.012694834 0.11143001
0002c0 a6 c9 a0 3d d3 09 b5 ba e6 00 8a 3c 9e 80 88 3a
       0.078509614 -0.0013812132 0.016846132 0.0010414307
0002d0 ca 1d 15 3e bb 12 a3 bb 14 54 39 3e 31 de 98 3d
       0.14562145 -0.004976598 0.1809848 0.07464255
0002e0 ec bd 8d 3d c4 2a 09 3d d6 26 95 3d 22 4c c7 3c
       0.0692099 0.03348805 0.07282798 0.024328295
0002f0 e4 39 34 3e b1 0f db 3d 10 38 e2 3c 77 b0 05 bd
       0.17600209 0.10696352 0.027614623 -0.032638993
000300 9f 20 ab 3d 31 ef cc 3d 80 ad 3e 3e f9 3a ea 3d
       0.08355831 0.1000656 0.18620872 0.114370294
000310 3e 11 8a 3d 3b 9b ad 3d 19 a2 20 bd dd e6 42 3e
       0.0674157 0.084768735 -0.03921709 0.1903338
000320 7a 37 0d 3e 70 f4 52 3d 6d 1b 88 3b 0f a4 53 3c
       0.13790694 0.051502645 0.00415366 0.012917533
000330 b9 12 d0 3d 7c 92 5e bd cc a1 2f 3d 5c 84 63 3d
       0.10159821 -0.054338917 0.04287891 0.05554615
000340 51 94 25 3c 44 d8 00 3e 0d bf 1b bc 77 b5 27 bd
       0.010106162 0.12582499 -0.009505999 -0.040944543
000350 77 17 f5 3c be d2 92 3d 41 71 f5 bc e1 41 c8 3c
       0.029918415 0.07169102 -0.02996123 0.024445476
000360 20 a8 9f 3d 74 18 e2 3d 87 36 27 3d 59 05 a3 3c
       0.07795739 0.1103982 0.040823486 0.01990001
000370 8c 75 40 bd 6c 6a 79 bd 42 8e b3 3d f6 63 03 3e
       -0.0469871 -0.060892507 0.08767368 0.12831101
000380 f5 82 ae 3c 72 de da 3d 20 a8 a7 3d 75 6a 8b bd
       0.02130268 0.10686959 0.08186364 -0.068074144
000390 56 2d 9d 3d a7 7c ef 3d df 18 58 bc b2 27 44 3d
       0.07674663 0.116936974 -0.0131895235 0.04788942
0003a0 82 ac 96 3c 70 df 86 3c 9a 19 c5 3d 52 9f 72 3d
       0.018392805 0.016463965 0.09624024 0.05923397
0003b0 67 1e 8c 3c da a5 18 be 0d 2c 89 3d 66 9a b2 3d
       0.01710434 -0.14907017 0.06697855 0.087208554
0003c0 71 24 55 3e 07 ec 7a 3c 63 12 b8 3d
       0.20814683 0.015315062 0.08987882

features.0.bn.running_mean f4 [243]
000000 b1 62 c0 3e 1f 15 39 3e 67 f5 8b 3e ec 08 16 3e
       0.37575296 0.18074463 0.27335665 0.14651841
000010 63 11 32 3e 76 3b 9b 3f 04 51 9c 3e 79 3d c5 3e
       0.17389445 1.2127521 0.3053056 0.38523462
000020 a4 4f a9 3e 1f bc 31 3e cb db d8 3e 21 98 51 3f
       0.33068573 0.17356919 0.4235519 0.81872755
000030 0e 46 6b 3f b6 43 8f 3e a4 d5 14 3f 9d 73 24 3e
       0.9190377 0.27981347 0.5813849 0.16059728
000040 b6 4c f3 3e be 72 80 3f 47 42 a2 3e 2a b7 05 3f
       0.47519463 1.0035017 0.3169119 0.5223261
000050 a0 13 b9 3e 90 af 6b 3e bf 70 9c 3d bd 46 14 3f
       0.36147785 0.2301619 0.07638692 0.5792044
000060 67 3a 11 3e 0d d1 0a 3f 32 50 72 3f f9 a3 68 3f
       0.14182435 0.54225236 0.9465362 0.908752
000070 65 e8 74 3e 52 db 0b 3f 86 6d ea 3e b5 43 24 3f
       0.23916776 0.5463153 0.45786685 0.6416581
000080 d6 fd 7e 3e 25 d6 0d 3f 2d 3a 53 3e 16 0b 05 3f
       0.24901518 0.55404884 0.20627661 0.5197004
000090 66 06 8c 3e 80 af aa 3e 3e 07 cb 3e 45 57 ff 3d
       0.27348632 0.3333702 0.39653963 0.12467817
0000a0 0d f9 49 3f 47 21 6e 3e 56 ef fd 3e e6 0b a3 3e
       0.78895646 0.23254882 0.4959666 0.31845015
0000b0 bf 13 c8 3e 60 63 1e 3f 9b f6 1d 3f eb 06 6e 3e
       0.39077565 0.61870384 0.61704415 0.23244826
0000c0 ba 93 af 3e 39 ad 85 3e aa e0 a2 3e 59 5c 1c 3d
       0.34292394 0.2610872 0.3181203 0.038174007
0000d0 4d 86 2e 3e 62 55 46 3e ef 70 85 3e 9d fe 0d 3f
       0.17043419 0.19368508 0.26062724 0.55466634
0000e0 24 0b 8f 3e f0 fb 7d 3e 67 fc f3 3e 1e c5 68 3e
       0.27938187 0.24803138 0.47653505 0.22731444
0000f0 2d 59 f4 3e 5f 0b b0 3e 00 ac 05 3f 77 5a 8c 3e
       0.47724286 0.34383675 0.52215576 0.2741277
000100 e2 91 6a 3f 69 42 ea 3e d8 e3 54 3e 24 23 d6 3e
       0.9162885 0.45753792 0.2079004 0.41823685
000110 09 22 dc 3e 74 5b 55 3e 50 a8 cd 3e f3 a4 35 3e
       0.42994717 0.20835668 0.40167475 0.17738704
000120 7c eb 83 3e dd c5 43 3e 86 83 b5 3e 2b ed 8a 3e
       0.25765598 0.19118448 0.35451907 0.2713407
000130 d3 e8 4f 3e 2b ed 51 3e 64 c6 fd 3e 2c 03 58 3e
       0.20303659 0.20500629 0.49565423 0.2109496
000140 e8 70 37 3f 83 b8 1d 3f e7 a0 08 3f cf e1 1c 3f
       0.71656656 0.6160967 0.5337052 0.61282057
000150 80 7e d2 3e 3f 38 06 3f 88 c8 db 3e ab d1 ae 3e
       0.41112137 0.52429575 0.4292643 0.3414434
000160 c6 56 1b 3e 2f 53 a5 3e ae 5b 75 3f a1 65 d4 3e
       0.1516982 0.32290027 0.9584302 0.41483787
000170 fe fe 21 3f 3d 8a f6 3e 16 ab 07 3d c1 43 4b 3e
       0.6327971 0.48152342 0.033122145 0.19850065
000180 c9 03 a3 3d fd 3e f3 3e 34 f2 66 3e 94 2f 21 3e
       0.07959706 0.47508994 0.2255333 0.15740806
000190 ee b3 de 3c b5 95 0e 3e 0b 3a 84 3e d1 06 c3 3e
       0.027185407 0.13924296 0.25825533 0.38091138
0001a0 52 af 47 3f 5e c4 42 3e e7 6f 38 3e 80 6f af 3e
       0.7800189 0.1902022 0.18011437 0.34264755
0001b0 40 46 27 3f 3f 71 3f 3f cc 74 de 3e 22 97 50 3d
       0.6534157 0.74782175 0.43448484 0.05092538
0001c0 c0 59 3a 3f 67 f4 8f 3e 3e 57 15 3f 2e ac 6e 3d
       0.727932 0.28116152 0.58336246 0.058269672
0001d0 55 1e 45 3e 31 d5 3b 3e 0f ea 3b 3f aa 06 fa 3e
       0.19249852 0.18343045 0.7340402 0.4883321
0001e0 96 72 c4 3e 17 93 06 3e f4 cd 83 3e 09 7a 9f 3e
       0.38368672 0.13142048 0.25743067 0.31147793
0001f0 3f 1b 8f 3e c4 f2 af 3e 8d ba 18 3e ce 75 ae 3e
       0.27950475 0.34364903 0.14914913 0.34074253
000200 c7 e2 30 3d 0c 8c 28 3f 4b 85 55 3f 77 98 2c 3d
       0.04318502 0.65838695 0.83406514 0.04213759
000210 5b c5 f2 3d e5 3f d9 3e d8 fd 85 3e 46 33 8b 3b
       0.11854049 0.4243156 0.2617023 0.0042480556
000220 e0 47 ed 3d 89 5b b5 3e 65 b7 30 3e 09 92 12 3e
       0.11585975 0.35421398 0.1725746 0.1431352
000230 f7 c0 ae 3e b8 9d 83 3e fb 63 06 3f e6 bb 2b 3e
       0.34131595 0.25706267 0.5249631 0.16770896
000240 c5 55 85 3e ef ef b6 3e bd 1b 56 3f 41 d7 44 3f
       0.26042 0.3572993 0.83636075 0.7689095
000250 97 6c 86 3f 47 2c 5a 3e 0f 9f a0 3e 24 4a a2 3d
       1.0501889 0.21305953 0.31371352 0.079242975
000260 35 ed 71 3e 3e 16 18 3f 98 cc e9 3e 91 84 8f 3f
       0.23625644 0.5940894 0.45663905 1.1212331
000270 38 88 5a 3f be f1 15 3f 6c 62 b6 3e cb 5a 48 3e
       0.85364103 0.58571994 0.35621965 0.19565885
000280 d2 68 27 3e a1 31 a5 3e 12 fa 57 3e 89 32 98 3d
       0.1634858 0.32264426 0.21091488 0.07431514
000290 8b a6 af 3d 7c a4 b5 3e 6f 10 97 3e f6 44 13 3f
       0.085766874 0.35477054 0.29504725 0.575271
0002a0 b2 11 19 3e b8 31 b5 3e bf 24 e1 3d 1f 00 49 3e
       0.14948156 0.35389495 0.10993337 0.19628952
0002b0 ea 30 94 3e 43 e8 97 3e a6 87 7c 3e bd 3f 19 3f
       0.28943568 0.2966939 0.24661121 0.5986288
0002c0 f7 8f b9 3e 4e c8 a1 3e d3 9c ab 3c ea 20 e5 3e
       0.3624265 0.31598133 0.020948803 0.44751674
0002d0 9c 7f 9e 3f ec 90 ca 3e 0e bc b0 3f a3 27 00 3f
       1.2382693 0.39563692 1.380739 0.5006048
0002e0 0c 9d 4f 3e c4 a2 cb 3e b7 b0 35 3e 47 2b 70 3e
       0.20274752 0.39772618 0.17743193 0.23454009
0002f0 07 53 f0 3e 80 b6 c7 3e a2 76 b3 3e 62 88 c8 3e
       0.46938345 0.39006424 0.35051447 0.39166552
000300 fc 95 14 3f 2a 63 dd 3e 9d 05 38 3f c2 56 f3 3d
       0.5804136 0.4323972 0.71883565 0.11881782
000310 e4 b7 98 3e 69 80 64 3e c5 e6 44 3e 1b f4 7a 3f
       0.29827797 0.2231461 0.19228657 0.98028725
000320 48 8f 17 3e 2d 23 84 3d 56 99 ae 3d fe 16 ac 3e
       0.14800751 0.06452022 0.0852534 0.33611292
000330 00 38 15 3e a1 a7 d3 3e 5b 2e 93 3e dc 41 70 3f
       0.14572144 0.41338828 0.28746304 0.93850493
000340 ff 4b ca 3e b4 de 03 3f ef e4 21 3e 73 40 b2 3e
       0.39511105 0.51511693 0.15809987 0.34814796
000350 08 d1 1c 3e e5 fd c2 3e 65 54 77 3e 88 e5 92 3e
       0.15314114 0.3808433 0.24153288 0.28690743
000360 66 de 4b 3e dc 31 53 3f 27 c2 58 3e 53 80 5a 3e
       0.19909057 0.82497954 0.21167813 0.21338014
000370 0b 03 1b 3f 12 d4 1b 3f 13 fc 8e 3e 1b d1 dd 3e
       0.6055152 0.6087047 0.27926692 0.43323597
000380 8e c3 d3 3e e7 40 78 3e 82 ff ce 3e 06 43 73 3f
       0.41360134 0.24243508 0.40429312 0.95024145
000390 e5 bf 2a 3e 82 13 94 3e a1 1a 39 3f e0 bc 05 3f
       0.16674764 0.28921133 0.7230626 0.52241325
0003a0 b0 c7 df 3e 4c e8 8b 3e 4f 7f 4b 3e bb 63 ad 3e
       0.43707037 0.27325666 0.19872783 0.3386515
0003b0 50 65 98 3e c2 f9 55 3f 26 28 06 3e 3d c2 80 3e
       0.29764795 0.83584225 0.13101253 0.25148192
0003c0 4a c7 31 3e 98 e8 1a 3e ac 53 b6 3e
       0.17361179 0.1512779 0.35610712
