Lab4_Model_Compression_Pruning_and_Quantization/Checkpoint/SincNet_finetune.pth.tar (torch, 870235 bytes, 48 tensors)

sincconv.conv0.low_hz_ f4 [37, 1]
00000000: c2b3 ef41 3b5f a142 f2bc 0643 0421 4043
00000010: eddf 7d43 3485 9f43 7e89 c243 1d21 e843
00000020: 8d20 0844 6a69 1d44 ed8c 3444 93c8 4c44
00000030: a836 6744 197b 8144 e474 9044 877e a044
00000040: 3a98 b144 b8d9 c344 9557 d744 c437 ec44
00000050: d443 0145 e837 0d45 80f4 1945 d580 2745
00000060: d41a 3645 26b1 4545 ee49 5645 1d03 6845
00000070: 2221 7b45 5fb2 8745 fc94 9245 2938 9e45
00000080: 59a1 aa45 87e4 b745 e20e c645 3a3a d545
00000090: df7b e545
29.962772 80.686 134.73807 192.12897 253.87471 319.04065 389.07416 464.2587
544.5086 629.6471 722.20197 819.134 924.854 1035.8468 1155.6528 1283.954
1420.7571 1566.8037 1722.7369 1889.7427 2068.2393 2259.4941 2463.2812 2680.052
2913.6768 3163.0718 3428.6206 3712.1946 4018.0708 4342.2964 4690.623 5063.02
5460.1685 5884.566 6337.8604 6823.2783 7343.484

sincconv.conv0.band_hz_ f4 [37, 1]
00000000: 83f9 4842 f8f4 5742 d190 6742 daab 7642
00000010: 7fab 8442 fc72 8c42 de81 9642 2671 a042
00000020: 40ea ab42 bf59 b642 7c96 c442 c434 d042
00000030: 1c8d e042 a17f ee42 ff87 ff42 5ec2 0843
00000040: fd67 1243 b645 1c43 24b6 2643 b52e 3243
00000050: 7459 3e43 d427 4c43 f219 5a43 b071 6843
00000060: c2be 7843 f53e 8543 8a33 8e43 23e8 9743
00000070: e3a5 a243 4390 ad43 3dfc b943 9885 c643
00000080: 6e7d d443 432e e343 3aa7 f243 ed9e 0144
00000090: 209e 0a44
50.243664 53.989227 57.891422 61.667824 66.33495 70.22458 75.25365 80.22099
85.95752 91.175285 98.293915 104.10306 112.275604 119.249275 127.76562 136.75925
146.4062 156.27231 166.71149 178.18245 190.34943 204.15558 218.10135 232.44409
248.74515 266.49185 284.40265 303.81357 325.296 347.12704 371.9706 397.0437
424.97992 454.36142 485.30646 518.4832 554.4707

sincconv.bn.weight f4 [37]
00000000: ac7e 893f 54c4 923f e1b4 823f d6b1 943f
00000010: c4a5 db3f be8d 8d3f da0a d23f 101a 8c3f
00000020: 6107 a43f ddfc 903f 3046 6b3f e978 a43f
00000030: 5c23 883f 65cf 933f ebf6 9a3f ab21 873f
00000040: 22b7 8d3f 1fb8 863f d7c9 933f 303d 853f
00000050: 8b94 813f 5763 8f3f 27aa 8f3f 2388 843f
00000060: 9405 763f 4ba2 7b3f 6d1f 6b3f e418 303f
00000070: 6573 783f 7540 593f 8e1f 503f 6810 773f
00000080: 29cb 5d3f 7776 563f fdaf 7e3f 252d 863f
00000090: ae20 963f
1.0741782 1.1466165 1.021145 1.1616771 1.7159963 1.1058881 1.6409562 1.0945454
1.2814752 1.1327168 0.9190397 1.2849399 1.0635791 1.1547667 1.2106603 1.055715
1.1071513 1.0524939 1.1545972 1.0409298 1.0123457 1.1202191 1.1223801 1.0354046
0.9610226 0.98294514 0.91844827 0.6878798 0.9705108 0.8486398 0.8129815 0.9650941
0.8663812 0.83774513 0.99487287 1.0482527 1.1728723

sincconv.bn.bias f4 [37]
00000000: fb48 033f e925 5f3e fb0d 043f ed3d 513e
00000010: cdeb 053f abea 8c3e c729 1f3f 7dd6 8a3e
00000020: f7ec bf3e 7257 a13d f2aa 923e f2cc 813e
00000030: 30ca 9d3d d886 7d3e ccbc 423e 72b1 863e
00000040: d4a2 ae3d e10d 963e 2822 40bc c093 843e
00000050: 2dd2 483e e5de 133e f5b4 2f3e 81bb 1a3e
00000060: 636e 673e d37d 603e 970a 123e 2823 043e
00000070: 8ea9 253e 0e63 95bc 4bf8 47be 0f32 ff3d
00000080: 4720 0b3e 4010 f2bc d74b 75bd 46c6 cf3d
00000090: 6214 903d
0.51283234 0.21791805 0.5158383 0.20433779 0.5231293 0.27522787 0.6217312 0.27116767
0.37485477 0.07878007 0.28646046 0.25351673 0.0770458 0.2475847 0.19017333 0.26307255
0.08527151 0.29307464 -0.0117268935 0.25893974 0.19611426 0.14440496 0.17158873 0.1511059
0.22600703 0.21922998 0.14261852 0.12904036 0.16177961 -0.01823571 -0.1952831 0.1246072
0.13586532 -0.029548764 -0.05988678 0.101452395 0.07035138

sincconv.bn.running_mean f4 [37]
00000000: 0996 c83d a079 c13d 7f9d b33d 59c2 a43d
00000010: 1f67 9d3d c663 9c3d e86b 9e3d 626e 9e3d
00000020: 6b3e 993d f9b8 8c3d 0bee 733d 1140 4f3d
00000030: 394b 313d fdcf 103d 3660 ec3c 64cb c93c
00000040: ee24 b23c c7ee 963c d6ff 753c db93 593c
00000050: dd0b 5a3c 7e65 533c e2e0 463c 5972 343c
00000060: 5f69 1a3c 9f44 083c 9703 fd3b 2228 053c
00000070: 74ea ec3b 3d34 b23b 116d a43b 90b9 903b
00000080: 1df4 733b 9863 353b 62d2 283b 0bbb ae3a
00000090: 4df4 b039
0.09794242 0.09447026 0.08770274 0.080448814 0.076856844 0.07636218 0.07735425 0.077358976
0.074826084 0.06871218 0.059553187 0.050598208 0.04328463 0.035354603 0.02885447 0.024633117
0.021746125 0.018424405 0.015014609 0.01327988 0.0133084925 0.012902616 0.012138577 0.011013591
0.0094245365 0.008317142 0.007721375 0.008127244 0.0072300974 0.005438356 0.0050178845 0.004416652
0.003722436 0.002767777 0.0025760164 0.001333089 0.00033751354

sincconv.bn.running_var f4 [37]
00000000: 4f21 fd3c 2672 f03c cccc dd3c 11e3 cc3c
00000010: 6b47 c83c f52a cf3c 7b27 de3c bdaa e93c
00000020: c96c e63c 0bb7 cd3c e295 a43c d51a 803c
00000030: c300 493c 414a 183c 8c08 f03b 0fb9 ca3b
00000040: 8ea3 ab3b 7668 7e3b 0dcb 2d3b d367 103b
00000050: 1ab7 1c3b bc8d 163b 2696 f03a 07e5 c23a
00000060: 2dbe 963a ebe2 663a e5e7 523a 19cd 743a
00000070: 71c6 563a 83e9 e639 6e76 ed39 a416 c539
00000080: e347 9839 23f9 0139 5077 ec38 d3df fa37
00000090: 71c3 3236
0.030899672 0.029351305 0.027075194 0.025010617 0.024448117 0.025289038 0.027118435 0.028523797
0.028128045 0.025111696 0.020091001 0.015637795 0.012268248 0.009295047 0.0073252376 0.0061866115
0.005238003 0.0038819588 0.0026518733 0.002203454 0.0023912848 0.0022972664 0.0018355295 0.0014869281
0.0011500769 0.0008807617 0.0008045419 0.0009338423 0.0008193022 0.00044042998 0.000452924 0.00037591637
0.0002904526 0.0001239521 0.000112755806 2.9906549e-05 2.6637829e-06

features.0.conv0.weight f4 [37, 1, 25]
00000000: acb8 edbc 2282 ae3d 360d 4dbe 0a4b 54be
00000010: 440b 32be 9ce0 a5bd d399 35be 34bc 47bd
00000020: d611 88be 3399 6abe 42dd b8be 17d9 abbe
00000030: 70a8 ecbe 42f3 b7be d230 82be 14ac d5bd
00000040: a656 153d 7f00 1d3e dae6 00bd 3e20 ac3d
00000050: 8dc0 983e 22e8 df3e 055b 853e 5ca1 ef3e
00000060: f60f 903e cc61 9c3e 6a89 c63e f5ea 783e
00000070: 0dfb 183e 82bf 483e e364 01be 4666 67bd
00000080: 2192 a5be 6a32 c3be a092 ccbe ef5e 6ebe
00000090: aa6d 66be fb5b bbbe 4466 bebd 44ae 843d
000000a0: e650 193d ec8c 263e 18da 8b3e 77b4 c33e
000000b0: 22fa f23e 326a 023e 044d 3a3e 2060 963e
000000c0: 1b1f a63e 1332 8b3e f601 e63e b93f 663e
000000d0: da50 98bd 8dc2 8c3d b9e0 fabd 7760 54be
000000e0: 315c 143e 74b6 0a3e 8dc1 3bbe c9f6 fa3d
000000f0: 1b98 083e 79a7 553e ce5c 4c3e 0990 c43e
00000100: 4175 383e 856c 9c3e bc51 7f3e ecad 323e
00000110: a8f2 9eba cb0f c2be 0095 c8be 76ea 60be
00000120: 208f 9bbe 7538 fbbe 3838 d1be 079e eb3e
00000130: 6e2c 963e e0d4 95bd 4247 36be b0f8 eebe
00000140: 6b61 c0be 1a22 14bf 6b54 11bf 404c bebe
00000150: dd4c 74be 5016 88be 5566 003d 9560 0fbe
00000160: dc80 613e 6437 3f3e fd43 ecbd dff0 02bd
00000170: d31d 6abb b3df 26bd 27b1 74bd 428b c1bd
00000180: 4a1e 4bbe 392c aebe 41cc 0cbe d076 ccbe
00000190: 7a82 edbe 427b e5be a8aa 02bf 75c5 ecbe
000001a0: bff3 05bf 1ac4 acbe 8eaa 3fbe cb77 82be
000001b0: 6c51 3bbd 355e 6f3e 75ce 3c3e 5ed5 a63e
000001c0: f597 c13e 9ad5 fc3e bb1a 133f 9a62 183f
000001d0: 80ae d63e 1b88 be3e 2271 823d 1778 26be
000001e0: 96b6 e8bd e9c0 e83d 9a3e cdbc 6b05 bbbd
000001f0: 5b7a f9bd 0812 d4be 66b7 d5be 1f32 97be
00000200: 4288 edbd f7e7 e0bd 37f9 d1be 72d0 febd
00000210: c9a9 debe 59e4 b5be 5e54 cdbe c4c3 b3be
00000220: 9982 a7be fc1a dbbe 76c7 bfbe 6519 48be
00000230: 6e98 1abe 491b 77be 0819 82bd 5523 8cbe
00000240: fcb8 6bbd 6be0 443e e4af 04bd 295c 883e
00000250: 005b 1d3e 9707 bdbd b094 133f 8282 d53e
00000260: d36c 973e 4a79 063f 81bc 213e 1102 ad3e
00000270: 950c 7c3e 3065 e63e 5bf6 a03e 7e91 a13e
00000280: 1288 383e a175 5a3b a3c7 e2bd f3aa 7fbe
00000290: 585b 55bd 49e4 903b e229 8fbd 245d bcbe
000002a0: 338b 95be 78d0 f1be a51b 01bf 522b 01bf
000002b0: 9f4e acbe 8d6b 09bf 8830 d6be d35e 883d
000002c0: 47d7 063e c5cb 1bbe 40aa 61be 69ad 51be
000002d0: 7fed c0bc 944a 57be 470e 8fbc 068b ddbd
000002e0: 9115 69be 1ece 88be 954d c2be 022d a2be
000002f0: c6b2 cdbe 27a2 97be e102 8fbe e2d4 e9be
00000300: 2c0e ddbe 05ed 05be 6f10 e0be bb5e 59be
00000310: e3b9 453d 7d18 01bd 156c fabd 490c 8fbe
00000320: bdfd 473e cb6f 2fbc deea f33d e614 083e
00000330: 8aa5 6a3e ec94 873e 19ec e93e 9bff ab3e
00000340: c35f 073f c053 f13e fa08 3c3e df8b ab3e
00000350: d821 933d 3b98 013e d19a 853e 9c34 703e
00000360: 5286 3e3e 2a73 1bbe e118 37be c047 96bd
00000370: f801 d8be b3c2 f5bd b836 0dbf 761b f7be
00000380: 49cd 17bf 743f 24be 63ff 75bd 31f2 7b3d
00000390: 2fff 7bbe 2d99 b7be 1b68 b4be 5b70 eabe
000003a0: 8377 39be ce38 c4be 9488 01bf 2163 f2be
000003b0: 4f93 69be adfa 12be 2ab3 e8bd 0299 47be
000003c0: 932a c4be 7647 8cbe 2519 c7bd f108 e33d
000003d0: 9309 09bd d122 24be 6917 3fbe 7215 28be
000003e0: acf0 e03d b443 213d 6a3d 16be 0c10 643e
000003f0: 5ab4 0fbe cdca b1bd 329c 3abd 286c c1bd
-0.029018722 0.085209146 -0.20024571 -0.2073175 -0.1738711 -0.080994815 -0.1773446 -0.04876347
-0.26576108 -0.22910003 -0.36106306 -0.33564064 -0.46222258 -0.35927778 -0.25427872 -0.10433212
0.036459588 0.1533222 -0.031470157 0.08404587 0.29834405 0.4373179 0.26046005 0.46802795
0.28137177 0.30543363 0.38776714 0.24308379 0.14939518 0.19604304 -0.12636141 -0.05649402
-0.3233805 -0.381244 -0.39955616 -0.23278402 -0.22502771 -0.36593613 -0.09296849 0.06478551
0.037430666 0.16264695 0.2731483 0.3822362 0.4745646 0.12735823 0.18193442 0.29370213
0.32445607 0.2718664 0.4492337 0.22485246 -0.07437296 0.06873045 -0.12249894 -0.20739923
0.14488293 0.13546163 -0.18335553 0.12254102 0.13339274 0.20864667 0.19957277 0.3839114
0.18013479 0.30551544 0.24933523 0.17449158 -0.001212676 -0.37902674 -0.39176178 -0.2196444
-0.30382633 -0.4906651 -0.40863204 0.46019003 0.29330772 -0.07315993 -0.1780062 -0.46674109
-0.37574324 -0.57864535 -0.56769437 -0.3716755 -0.23857446 -0.26579523 0.03134759 -0.14001687
0.22021812 0.18673474 -0.11536405 -0.031967994 -0.0035723343 -0.04074068 -0.05973926 -0.094503894
-0.19835773 -0.34018114 -0.13749792 -0.39934397 -0.46388608 -0.448206 -0.5104165 -0.46244398
-0.5232505 -0.33743364 -0.18717405 -0.2548202 -0.045731947 0.23375781 0.18438132 0.3258466
0.37811247 0.49381715 0.5746266 0.59525454 0.41930008 0.37213215 0.063692346 -0.16256748
-0.113629505 0.1136492 -0.025054265 -0.09131893 -0.121815406 -0.41420007 -0.41741484 -0.29530427
-0.11598255 -0.10981744 -0.41010448 -0.124421015 -0.4348891 -0.35525778 -0.4010343 -0.35110295
-0.32716826 -0.42794025 -0.37456864 -0.19540937 -0.1509721 -0.24131502 -0.063524306 -0.27370706
-0.05754946 0.19226234 -0.032394305 0.26632813 0.15366745 -0.09229963 0.57648754 0.41701132
0.29575214 0.5252882 0.15794565 0.3379064 0.24614175 0.44999075 0.31437954 0.31556314
0.18020657 0.0033334272 -0.11073234 -0.24967556 -0.052089065 0.004421745 -0.069904104 -0.3678981
-0.29207763 -0.47229362 -0.5043281 -0.50456727 -0.33653733 -0.53679734 -0.418339 0.06658711
0.1316806 -0.1521445 -0.22037601 -0.20476307 -0.023550747 -0.21024543 -0.017462863 -0.10817532
-0.22762133 -0.26719755 -0.37949815 -0.31674963 -0.40175456 -0.296159 -0.27931884 -0.4567023
-0.43174875 -0.13078697 -0.43762538 -0.21227543 0.04827298 -0.031517494 -0.12227646 -0.2793906
0.19530387 -0.010707806 0.11910032 0.13289222 0.2291471 0.26480806 0.4568794 0.3359345
0.52880496 0.4713421 0.183628 0.3350515 0.071841896 0.12655728 0.26094678 0.23457569
0.18605927 -0.1518065 -0.17880584 -0.07337904 -0.42189002 -0.120000266 -0.5516162 -0.4826314
-0.59297615 -0.1603983 -0.06005801 0.06151027 -0.24609064 -0.3585905 -0.35235676 -0.45788845
-0.18111996 -0.3832459 -0.50599027 -0.47341254 -0.228101 -0.14353438 -0.11362298 -0.19491962
-0.38313732 -0.2739827 -0.09721593 0.1108569 -0.033456396 -0.16028906 -0.18661274 -0.1641443
0.109834045 0.039371207 -0.14671865 0.22271746 -0.14033642 -0.08681259 -0.045559116 -0.09444457

features.0.conv0.bias f4 [37]
00000000: 9f81 e1be 31e3 203e 9539 a0be 01c1 e23d
00000010: 3bef 253e 42f9 cebd 0bb0 01be 5cd7 963d
00000020: 386f ba3d 9cc1 fabc c116 acbc 1b20 04be
00000030: 349e 46be 76ea 0ebe d62a 223d 48b3 38bd
00000040: bc7b 873e a12f a9bd 9139 e33d 0582 6cbc
00000050: 0c9f af3d ddd4 35be 1005 563e 87c3 4d3e
00000060: 38d7 eebd 1ee0 1bbd ba2e 96bb 9c9b 233e
00000070: 1a4e 65bd b85c b03e 81a0 69be 3170 86bd
00000080: bfb4 693e 5bb5 6fbe 63d9 1cbd 2090 4fbe
00000090: 4f0d d4bc
-0.44044206 0.15711667 -0.31293932 0.11071969 0.1620454 -0.10106136 -0.12664811 0.07365295
0.091032445 -0.030609898 -0.021006944 -0.12902872 -0.19396287 -0.13956627 0.039591633 -0.04509285
0.2646159 -0.082610376 0.11094964 -0.014435296 0.08575258 -0.17756982 0.20900369 0.20094119
-0.116621435 -0.03805553 -0.004583207 0.15977329 -0.055982687 0.3444574 -0.22815134 -0.065643676
0.22822855 -0.23409025 -0.038293254 -0.20269823 -0.025885252

features.0.conv1.weight f4 [243, 37, 1]
00000000: 526d 90be 965d 17bd 7590 e43d 1e5c ab3e
00000010: c0b3 f13c ec31 f03d 751b 8f3e 69cd 88be
00000020: 3ed4 a93e bc92 d63d 65b2 063e 31e4 febc
00000030: be30 123e cd7e 91be 0b2d 7c3d f6b5 e53d
00000040: 0e63 ed3d fec8 a13e 1e32 51be a312 65be
00000050: f528 323f 5c74 0c3e 4069 9d3e 081f cbbe
00000060: 60d9 913d 9a56 d0be 4879 67be 6f90 a13d
00000070: 56a4 f63d fb2a 803e 300e e8be 0b71 2f3f
00000080: 19cb d6be 20dd 1abe a0b9 88be bec0 d2be
00000090: 33de 86be c118 183c 15da 983e 5900 97bd
000000a0: 54e4 9c3e c1eb d33e 90fc dc3e 76c0 43bd
000000b0: e12a ee3d b28f 18be 97b3 c2bd b42e dbbd
000000c0: 5006 1d3e e990 d23c 71bc 653d c71c b0bd
000000d0: a7f1 f4bb 6be7 15be 9a99 f23d d6f7 2abe
000000e0: 50fc 3d3e faa8 ebbe 539c 8ebe 1582 a73d
000000f0: 801f 873d eef0 1e3f bfba 7abe c9d3 babe
00000100: cf7a 833e 261b 05bf ab1c ddbe 255b 2c3e
00000110: 7f89 a5be d911 8fbe e777 c3bd a622 86bc
00000120: 17d0 f33d 8bd2 d0be 906f 013e 0681 68be
00000130: 7282 8f3e 0b6f 45bd 41c8 9b3d a99e adbd
00000140: 1fb6 12bf 5540 463e bb88 3bbe 381b 6bbe
00000150: ff28 06be c559 593d 5325 043e cbd7 983e
00000160: 6fd2 35be ebf6 123e 73b6 82be 4b59 7d3e
00000170: 0089 a9be a69f 8b3e b04d 91bc e109 e13e
00000180: 8749 2fbf 6c5e f93d 2a13 b0bd 2e44 c0bd
00000190: 5c56 76be 9b01 9bbc faa6 153f d93f adbe
000001a0: dfe2 f23c 2da8 a83e b0a0 15bf 1275 8cbe
000001b0: db38 363e 91ae 9bbe 47b5 1f3e 7b79 c4be
000001c0: fb7f dc3d 5709 2e3c 0468 933e 9d77 32be
000001d0: 932a 403e 8f5d 8f3d bc68 88be 7f6d 6a3e
000001e0: 6dff 1fbe ed76 533e 60cd 00bf 59c6 ffbe
000001f0: 40fb d83c 7526 383e e3c4 4f3e 5bee b9bd
00000200: e2c5 81bd 6e46 4cbe 3ae1 603e 29ca 5a3b
00000210: 629d 0d3f d1dd 55be 0ba6 8fbe 6580 9abe
00000220: 0c31 94be eccd 47be ef93 943e 6356 203d
00000230: 8322 2f3d a7c4 773e c9f2 55be 939b aabe
00000240: 10cc 953c 4857 cfbd 4f02 543d cfec dabd
00000250: 7634 94bd ee50 66be 9bab 07be 9514 9cbe
00000260: da5e 51be 5f43 e73c 4f58 3dbd d48b fe3e
00000270: 2833 bb3d 7e0a d739 9e82 783d c1e4 c7bd
00000280: 20ff 32be edb9 a43e eaac 903e 9955 a13e
00000290: 6ffb 07bf 8a17 5a3e 2461 4abd e1f8 60bb
000002a0: 05e2 4e3e 6556 57bd fe29 4dbe 5f82 a73d
000002b0: 9c3d efbd 9e03 843e 8b6a dc3e 8d25 5a3d
000002c0: d758 273e eb87 b73e 8065 83be 2f02 dc3e
000002d0: 6c5b 45be 11ed 833e abf0 2f3e ff91 8d3e
000002e0: 0c85 bebe bb3a bdbe 7a83 363e 3811 c7be
000002f0: a2c7 e1be 212b 333e fe79 90be 7d20 fbbe
00000300: 0dd7 32bf cad5 2c3e e12d f9be 9282 adbe
00000310: 6f24 e93e 3318 393e ce55 08be c61d 8cba
00000320: ab00 b53d 18e5 bbbd e23e ee3c 4082 283e
00000330: d405 a8be ca09 053e 55b8 a7bd 68c7 153e
00000340: 2092 a23d 4314 173b dde7 703c 8e19 6abe
00000350: 4e8c a4bd 07cc 64bd 2100 273c 0464 453d
00000360: 178c 10be cb1e 963e 4fa1 903d 30a4 56be
00000370: 9bc5 cc3d 41fd a93c 6cb1 573f feb4 89bf
00000380: 943a 603e 746e 1e3f 93d6 183e 46a1 173a
00000390: 78eb 10bf b789 aabe ae0f a8bd b780 75bd
000003a0: b923 223e c769 30be 7071 17bd 5e94 34be
000003b0: 5633 d33d 383c 9bbb d37e 063d c0e3 113d
000003c0: 2f33 203c f900 f13d 2579 78bd 1f09 143d
000003d0: aec6 febc 199d 0e3e 48d3 2fbd f254 fd3c
000003e0: 49b4 fabb 6ecb c53d 3e38 8abe 338a c93e
000003f0: 327c 38bd f4cd babd 9571 fcbc 771e bdbe
-0.28208405 -0.036954485 0.111603655 0.33468717 0.029504657 0.11728272 0.27950636 -0.26719216
0.3316974 0.10477206 0.1315399 -0.03111467 0.14276406 -0.28417054 0.061566394 0.11216347
0.11591159 0.31598657 -0.20429274 -0.2237039 0.69593745 0.13716263 0.30744362 -0.39672112
0.07121539 -0.40691072 -0.22604859 0.07888877 0.12043063 0.25032791 -0.45323324 0.68531865
-0.41951826 -0.15123415 -0.2670412 -0.41162676 -0.263414 0.009283246 0.29853883 -0.07373113
0.3064295 0.41390803 0.4316144 -0.047790967 0.11629272 -0.14898565 -0.0950691 -0.10702267
0.1533444 0.025703864 0.056087915 -0.08599239 -0.0074750963 -0.1463906 0.118457034 -0.16696104
0.18553281 -0.46027356 -0.2785364 0.08179108 0.06597805 0.6208638 -0.244853 -0.36489704
0.25679633 -0.5199455 -0.43185934 0.16831644 -0.32331464 -0.27943304 -0.09544354 -0.016373944
0.11904924 -0.40785632 0.12640214 -0.22705469 0.2802921 -0.048201602 0.07606555 -0.08477528
-0.57309145 0.19360478 -0.18313877 -0.22959602 -0.13101576 0.053064127 0.12904863 0.29852137
-0.17756055 0.14352004 -0.25529823 0.24741094 -0.33112335 0.2727024 -0.01773724 0.4395285
-0.6847157 0.12176213 -0.08597405 -0.09388004 -0.24056381 -0.018921664 0.5845791 -0.33837774
0.029649196 0.32940808 -0.58448315 -0.27433068 0.17795126 -0.3040662 0.15596496 -0.38373932
0.10766598 0.010622344 0.28790295 -0.17428441 0.18766241 0.07000267 -0.26642406 0.22893332
-0.15624781 0.20650835 -0.5031338 -0.49956015 0.026486993 0.1798342 0.2028995 -0.09078666
-0.06336571 -0.19948742 0.21960917 0.0033384657 0.5531827 -0.20885397 -0.28056368 -0.30176082
-0.2894367 -0.19512147 0.29019114 0.039144885 0.042757522 0.2419611 -0.20893396 -0.3332182
0.018285781 -0.101240695 0.051760014 -0.10689699 -0.07236569 -0.2249181 -0.13249056 -0.30484453
-0.20446339 0.028230367 -0.046226796 0.49716055 0.09140617 0.00041015813 0.06067144 -0.09760428
-0.17480135 0.321731 0.28256923 0.31510618 -0.5311803 0.21298042 -0.049409047 -0.003432803
0.20203407 -0.052572627 -0.2003555 0.08179163 -0.11681673 0.2578401 0.43050036 0.053258467
0.16342483 0.35845885 -0.25663376 0.42970416 -0.19273156 0.25766805 0.17181651 0.2765045
-0.37210882 -0.3695887 0.17823592 -0.38880324 -0.4409762 0.17496921 -0.28218073 -0.49048224
-0.6985939 0.16878429 -0.48667815 -0.3388868 0.4553561 0.18075638 -0.13313982 -0.0010690026
0.08838018 -0.091745555 0.02908272 0.16455936 -0.32816947 0.12992015 -0.081894554 0.14626849
0.079380274 0.0023052848 0.014703718 -0.22861311 -0.080345735 -0.05585864 0.010192902 0.048191085
-0.1411594 0.29320368 0.07062017 -0.2096107 0.09998628 0.020750644 0.842551 -1.075836
0.21897346 0.6188729 0.14925604 0.00057842245 -0.56609297 -0.33308193 -0.08206116 -0.059937205
0.1583394 -0.17227851 -0.036973417 -0.17634723 0.10312526 -0.0047374032 0.032835793 0.03561759
0.009777828 0.11767764 -0.060662407 0.03614151 -0.031100597 0.13927115 -0.042926103 0.030924294
-0.007650886 0.09657942 -0.26996034 0.3936325 -0.045040317 -0.09121314 -0.030815879 -0.36937305

features.0.conv1.bias f4 [243]
00000000: 2bd3 223e b239 5f3e b7d4 56bd 69a1 dcbd
00000010: fa82 563e 431d 0bbd 1f67 0a3e ed75 bbbd
00000020: a224 ccbe 5418 7ebd 1ee2 233e ad8d 8ebe
00000030: 1375 433f 18a0 373e 8c50 9dbc a917 89bd
00000040: 71e4 093f 4451 c8bd a91e d23c 69b7 833b
00000050: bed0 313e 2959 9bbe c658 75bd 618d c83e
00000060: dc4e 2fbc cfef 073e e15e 8e3f 8c43 54bc
00000070: bde5 a93b d462 41be cec0 70be c487 383d
00000080: 7a40 243c b22f 943e 6289 3d3e ddee 8a3e
00000090: 7218 363d 144a ad3d 41b4 303e c6a3 573d
000000a0: 03f9 313f b726 123f 823f d63e 4366 fb3d
000000b0: 84fd 033f 77a3 be3e 58c4 683e e785 273d
000000c0: 5ab2 bf3e a1f2 1c3e f8d8 a0bc 18d2 67be
000000d0: a516 c83d f3e9 793e 221f 803e 579c e03e
000000e0: 29db 9e3d bf30 933e 8dd7 853e fb19 543c
000000f0: 2b74 b8be 1395 803e 36ce 21be db5a bf3d
00000100: 4263 533e bb63 103e fbe6 1a3e 2c6d 88ba
00000110: 07ae 593f 6737 283e aa4a a53e cc68 663e
00000120: 8ba9 093e faf2 9cbe 0f58 543d 6196 633b
00000130: 9b16 5ebd bc00 d3be dadb 7d3e 0b9f 08be
00000140: 775f b33e 7752 283f 4371 153e b22d c93d
00000150: 87a1 96be 07b0 6abd 4b22 393e 7ca0 7f3d
00000160: ba5b 31bd 437f 493e 8619 dabd 0862 693d
00000170: b120 813e 533c b73e 63b4 433e a4c3 25be
00000180: fa41 f33d eafb 073e ac12 133e 8daa f0bd
00000190: 9138 f83d 3426 093f bbf1 a2bd 7529 393f
000001a0: bb3e 67be 919b 563e ddb3 a53e d7c6 38be
000001b0: 9d7d b33e 05e4 f03e d0e9 983d 3c1b 133e
000001c0: 7cfb 653e f6c9 aebd d902 263e 5d81 943c
000001d0: f0b1 39be 4cd6 e63e 9342 923e 0234 953e
000001e0: 8f09 073e 27b3 f4bc 3889 df3e cfcf d53e
000001f0: 37f3 1b3e 1a8a c93e 7e39 82be 5507 8fbe
00000200: 26a1 43be 2830 1f3e 7c80 62bd 4e7c 09bd
00000210: 70bf fa3c 6b5f eb3d 5f49 1f3d 548a b83d
00000220: fbf6 d13e 7e1b 393e eff8 00bd 0c91 2dbe
00000230: 23c8 ca3d 3143 bc3e a16c 833e 9a51 473e
00000240: 78c9 be3c 81b3 053f ad60 5d3e f957 b13e
00000250: 07a5 633e e8bf aebd 46fd 943e d7dc 5b3e
00000260: e071 41be c3bd 323f 5174 1d3f 4268 2f3e
00000270: 20a9 97be 6c50 e83e 49eb df3e 1063 62be
00000280: 7dd5 c83e c603 883e 3051 8bbe 823a 893d
00000290: 7e7e 07be 5afc 27be 7dbb b23e 799f e73e
000002a0: 38a0 99be ecff 373d 2a02 bb3e e797 6e3e
000002b0: 3bbc 40bb 5db9 713e 514b 003d 8eef cc3e
000002c0: 53b5 7fbd 5d3b 783c 77d2 06bd 2275 ee3e
000002d0: b747 fe3d 8778 e63e 0c4b b53d 6441 873e
000002e0: a088 923d 299e df3e 0fe6 a43c 3cca b8bd
000002f0: 838b bbbd 8beb a73d 4bc2 ce3e 9e96 07be
00000300: 8aa3 edbd bb72 333e 3ac6 b13e 5805 d23e
00000310: 275b 2fbd 0b19 8d3e 2e4a 22bc 298c 34bd
00000320: d8c8 703e 095d c33d cae8 1a3d ce61 0d3e
00000330: 94e5 593c 082d bb3e 538b 5f3e dc45 bd3e
00000340: 4eb5 5e3c eb8d a23e d937 09be daed 1ebe
00000350: 1274 32be 00ef 27be 5cef 51bd 356f 313e
00000360: 9fd4 d93e cc07 793e f231 823e f8d6 4e3e
00000370: e54a 853e efa0 943e 6943 c4bd ff4d 2ebe
00000380: ea08 0c3e 4370 84be 8a51 9c3e 955a 713f
00000390: 178b 0bbe 534b 7a3d e5cf 623f 27bb 04bd
000003a0: 0faa 8c3e 7928 1fbe 5dec 0d3e 06ea 6c3e
000003b0: d4d0 67be f341 0d3f 006d d9bc f41c 4e3e
000003c0: 8926 0abc 10a7 01be 4c52 863e
0.15900867 0.21799353 -0.052448954 -0.10772974 0.20948401 -0.033963453 0.135159 -0.09153352
-0.398717 -0.06203492 0.16004226 -0.27842465 0.76350516 0.17932165 -0.019203447 -0.06693966
0.538642 -0.09781125 0.025649386 0.004019667 0.17364785 -0.3034146 -0.059899114 0.39170364
-0.010699954 0.13275073 1.1122705 -0.012955558 0.0051848576 -0.18885356 -0.23511049 0.04505135
0.010025138 0.2894264 0.18509439 0.27135363 0.044456907 0.08461395 0.17256261 0.05264642
0.69520587 0.57090324 0.41845328 0.12275364 0.5155871 0.3723409 0.22731149 0.040899184
0.3744076 0.1532693 -0.019634709 -0.22638738 0.09769944 0.24405651 0.25023752 0.43869278
0.07756645 0.28748128 0.26141015 0.012945647 -0.3602613 0.25113735 -0.1580132 0.09343501
0.20643333 0.14100544 0.15127175 -0.0010408512 0.8503117 0.16427384 0.32283527 0.22500914
0.13443582 -0.30654126 0.05184179 0.0034727084 -0.054220777 -0.41211498 0.24790898 -0.1334192
0.3503377 0.6575083 0.14593987 0.09823169 -0.2942011 -0.05729678 0.18079488 0.06240891
-0.043300368 0.19677453 -0.106493995 0.056978256 0.25220254 0.3578821 0.19111781 -0.16187912
0.118778184 0.13279691 0.14362592 -0.1175128 0.12120164 0.5357392 -0.07956263 0.72328883
-0.22582524 0.20957781 0.32363787 -0.18044601 0.35056773 0.47048965 0.07466471 0.14365858
0.22459215 -0.08534615 0.16212024 0.018128091 -0.18134284 0.4508537 0.28566417 0.2914124
0.1318724 -0.029870583 0.43659377 0.41760108 0.15229498 0.39363176 -0.25434488 -0.2793528
-0.19104442 0.15545714 -0.055298313 -0.03356581 0.030608863 0.11492809 0.03888833 0.09010759
0.41008744 0.18076894 -0.0314874 -0.16949862 0.09901454 0.36770013 0.25668815 0.19464722
0.023289427 0.52227026 0.2161891 0.3463743 0.22230922 -0.08532697 0.29099482 0.21470962
-0.18891096 0.69820803 0.6150561 0.17129615 -0.2962122 0.45373857 0.43734196 -0.22108102
0.3922538 0.2656538 -0.2721038 0.067006126 -0.13231847 -0.16404858 0.34908667 0.45238855
-0.3000505 0.0449218 0.3652509 0.23300134 -0.002940907 0.23605867 0.031321827 0.40026516
-0.062428784 0.015150872 -0.03291556 0.4657374 0.12416022 0.4501383 0.08852205 0.26417077
0.071549654 0.43675354 0.020129232 -0.09022948 -0.09157469 0.08199223 0.4038261 -0.1324105
-0.11603458 0.17524235 0.34721547 0.41019702 -0.04281154 0.2755817 -0.009905381 -0.04407898
0.23514116 0.095392294 0.03781966 0.13806841 0.013299365 0.36557794 0.21830492 0.3696736
0.013593031 0.317489 -0.1340021 -0.1552042 -0.1742709 -0.16399765 -0.05125366 0.17327578
0.4254503 0.2431938 0.2542873 0.20199192 0.26033702 0.29029033 -0.0958317 -0.1702194
0.13675275 -0.258669 0.3053096 0.9427884 -0.13627277 0.06110699 0.8859847 -0.032405045
0.27473494 -0.15542783 0.13859697 0.23136148 -0.22638255 0.55178756 -0.026541233 0.20128232
-0.008432039 -0.12661386 0.26234663

features.0.bn.weight f4 [243]
00000000: 154a 773f 67fd 563f a4e6 933f 9c79 743f
00000010: 46af a93f b747 6e3f 80f1 723f ef26 723f
00000020: 28ef 523f 3909 213f 1aa0 6f3f 4627 943f
00000030: ba3e cf3f fcda 903f 6874 893f 3cae 803f
00000040: aa77 db3f ca0d 163f 3430 803f bb5e b03f
00000050: d6a9 8f3f 0ca0 503f 3165 813f d204 903f
00000060: e4f0 4e3f 3a13 4d3f 93ff fa3f a977 6e3f
00000070: f59e d03f e1eb 9a3f 71dd 493f 394d 703f
00000080: e9cb f93f b021 813f 66da 843f 577c 9c3f
00000090: ed10 9c3f a2d4 7c3f e0c5 ac3f 3edd b33f
000000a0: ddc6 833f fc34 aa3f ff93 0240 7ed3 983f
000000b0: 6e6c d13f 5ddf 713f 83a7 8a3f 8212 983f
000000c0: cb58 773f 04f9 613f ba0f 823f 57d0 873f
000000d0: dd2e ba3f 56af 903f 37cf db3e 8cfb 6e3f
000000e0: 5150 6c3f 99d5 ad3f 7ea6 6a3f 0507 943f
000000f0: b00d 563f 8654 883f f524 4a3f 8899 913f
00000100: 7a25 5e3f a103 853f 0b5a c63f 77bb aa3f
00000110: 4f06 e23f 65c7 2f3f 3f00 853f f141 893f
00000120: 28bc 853f 8972 973f a10b 8e3f cf42 953f
00000130: 8aa1 893f 56bb 743f a616 6c3f 8669 793f
00000140: 809e b53f 1787 b03f 2072 923f d93a 053f
00000150: f588 643f 29b1 683f f36c 883f 3028 973f
00000160: 4f34 883f 667f 5d3f 0139 9a3f da0e d43f
00000170: dd62 6f3f ba58 e53f 8c3d 913f d484 b33f
00000180: 75a2 9d3e 1c65 903f ceb4 783f efbf 8f3f
00000190: e105 3d3f 8588 7a3f c493 8a3f dfaf c53f
000001a0: 0463 7f3f 3c77 8c3f bac6 733f 7307 2c3f
000001b0: 1744 853f 188e b33f ca95 973f bbdf 663f
000001c0: e082 853f 539f 5f3f 7ef1 b23f 0860 913f
000001d0: 8aa5 423f 0077 ad3f 789a cc3f bce6 833f
000001e0: f251 803f 84e7 b23f 1e29 0e3f e279 dc3f
000001f0: 272c a83f db72 8a3f 1404 4a3f 023d a93f
00000200: d65d 873f 1239 7a3f 4390 613f e1e4 043f
00000210: e55d 653f b6c2 ad3f fb50 803f a79f e83d
00000220: 1767 af3f 0a8d 8b3f 0616 623f 74e8 493f
00000230: 7830 0e3f cc22 8b3f 1ee9 603f f569 573f
00000240: 4d0e 9a3f 5b6c 5a3f c6f1 b23f 7d5a 9c3f
00000250: 5753 5c3f 0818 7b3f b127 5b3f 53bd 3c3f
00000260: fecd 6f3f b099 703f f2e0 883f b019 7e3f
00000270: b49f 793f c438 a93f 5240 e23f 7736 533f
00000280: f5f0 933f dfe0 803f e982 553f cfbf 623f
00000290: 1d9c 723f ed3f 8e3f 5931 903f 3652 913f
000002a0: ff57 9d3f 966b c53f c2b5 5a3f 29f3 bf3f
000002b0: e957 683f 9bc2 bc3f 3ee5 713f d859 a33f
000002c0: 095a 9c3f 97f7 763f 0032 873f b135 843f
000002d0: d1d4 3b3f 8848 f63f 27fb 693f 49f8 833f
000002e0: eb43 703f d5ff b73f 0522 633f 20cc 333f
000002f0: f441 853f 196e 643f 006a a63f 889b 083f
00000300: 1831 863f 10cd 893f ab84 be3f 2db1 8a3f
00000310: 41ea 8a3f d206 c83f c961 703f d7e2 543f
00000320: 86ef d73f f59c 8a3f 8c3e 5d3f 5815 ff3f
00000330: 5bbb 6a3f a8ff 8e3f daed 833f 17a1 443f
00000340: bb00 813f 5dc6 8a3f 31bd a53f f2d8 903f
00000350: c63f 8a3f 30ef 833f 27d6 973f 27b3 413f
00000360: 0631 8a3f 79a9 8b3f 160d 5e3f f833 913f
00000370: e7ab b83f a6d9 683f e726 343f e325 a13f
00000380: e612 3c3f 4b65 803f 2a95 773f 5ef1 d63f
00000390: 01ca ab3f 5ace c23f 7f44 743f d641 503f
000003a0: 4798 9a3f 9745 7a3f 7660 af3f b680 733f
000003b0: 3093 343f d187 0b40 40ee 843f f8d8 843f
000003c0: 40a5 5b3f ed6f 783f 72fb 783f
0.96597415 0.8398041 1.1554761 0.9549806 1.3256614 0.9307818 0.9489975 0.9459066
0.82396173 0.629047 0.9360367 1.1574485 1.6191018 1.1316829 1.0738649 1.0053172
1.7145894 0.5861479 1.001471 1.377891 1.1223705 0.8149421 1.0109006 1.1251471
0.8083632 0.8010746 1.9609245 0.93151337 1.629851 1.2103235 0.7885352 0.9386783
1.9515353 1.0088406 1.037915 1.2225446 1.2192665 0.9876195 1.3497887 1.4051893
1.0295063 1.329742 2.040283 1.1939542 1.6361215 0.9448145 1.083237 1.1880648
0.9661986 0.8827059 1.0161049 1.0610455 1.4545552 1.1303508 0.4293153 0.9335258
0.92310053 1.358081 0.91660297 1.1564642 0.83614635 1.0650795 0.7896264 1.1374979
0.86775935 1.0391732 1.5496229 1.333846 1.7658175 0.68663627 1.03907 1.0723249
1.0448046 1.1831828 1.1097299 1.1661013 1.0752423 0.9559835 0.9222206 0.9742664
1.4188995 1.3791226 1.1441078 0.5204292 0.8927148 0.90895325 1.0658249 1.1809139
1.0640963 0.8652252 1.2048646 1.6567032 0.9351023 1.7917702 1.1346908 1.4024911
0.30788007 1.1280856 0.97150886 1.1230448 0.73837095 0.9786456 1.0826344 1.5444297
0.9976046 1.0973887 0.9522511 0.67198867 1.0411404 1.4027739 1.1842587 0.90185136
1.0430565 0.87352484 1.3979948 1.1357431 0.7603384 1.3551941 1.598464 1.030479
1.0025008 1.3976903 0.5553149 1.7224696 1.3138474 1.0816301 0.7891247 1.3221743
1.0575511 0.9774333 0.8811075 0.5191174 0.89596397 1.3575046 1.0024713 0.11358576
1.3703336 1.0902417 0.88314855 0.7887032 0.5554271 1.0869994 0.8785571 0.8414605
1.2035614 0.8532159 1.3980033 1.2215115 0.86064667 0.98083544 0.8560744 0.73726386
0.93673694 0.9398451 1.0693648 0.99257946 0.9750931 1.3220448 1.7675879 0.8250498
1.1557909 1.0068625 0.8340288 0.88573927 0.9476946 1.1113259 1.126506 1.1353214
1.2292479 1.5423458 0.8543359 1.4996082 0.9075914 1.4746889 0.9449042 1.2761793
1.2214977 0.9647154 1.0562134 1.0328885 0.7337161 1.9240885 0.91398853 1.0310146
0.93853635 1.4374949 0.88723785 0.70233345 1.0410752 0.89230496 1.3001099 0.5336232
1.0483732 1.0765705 1.4884237 1.083532 1.0852739 1.5627081 0.9389921 0.8315863
1.6869972 1.082915 0.86423564 1.9928389 0.9169213 1.117177 1.0306962 0.76808304
1.0078348 1.0841786 1.2948362 1.1316206 1.0800712 1.0307369 1.1862229 0.7566399
1.0796211 1.0911094 0.8673872 1.1343985 1.442746 0.90957105 0.7037186 1.2589687
0.73466337 1.0030912 0.9671198 1.679241 1.3421022 1.5219223 0.95417017 0.8135046
1.2077721 0.97762436 1.3701313 0.9511827 0.7053709 2.1801646 1.0385208 1.0378714
0.85799026 0.97045785 0.97258675

features.0.bn.bias f4 [243]
00000000: 15c2 053d c681 1c3d 395b 4d3e 1317 a13d
00000010: b9e5 df3d 67dd 2e3f 3b50 48bb db50 2a3c
00000020: 842a 683d dfcf 3a3e 6de2 4f3d 7027 fcbd
00000030: 7c13 823e 7661 fbba 982a 4cbe d6ac 1b3e
00000040: 1650 02be d0c8 873e ce61 6c3e 9f16 6d3e
00000050: 746b c43d 356b a1bd 508d 85bd 9289 5dbe
00000060: a791 f63c dda1 f93c 5b3a e83e dc7c 413e
00000070: c304 f43d ce97 7e3e 06e7 81bd 8104 233c
00000080: f281 e9bd 3d2e 683e 3777 04be 1d86 a3bd
00000090: dc46 a23d 0902 583e e1fc 753e 5c1b 713e
000000a0: ded3 173e 0c05 893e 248f 86be 7d54 b6bd
000000b0: 6dee 903e a205 d43e 5e6a 8cbe 2ae9 10be
000000c0: 5dff 81bd 95f8 893d 4f5d 04be 873f 243e
000000d0: 2d19 5e3e 04d8 713e 7935 15be d692 70be
000000e0: 24d5 703e 201f 5d3e 3d7f e3be b4f6 ff3d
000000f0: 0496 6dbd ce7e 523e 7d57 993e 4f16 2b3e
00000100: fafb 3b3e a64a 823e 1b78 c1bd e81d 05be
00000110: 2574 8a3e bc27 29bd 93e4 1cbe cb67 803e
00000120: e275 563c 4341 94bd d75c 2abe ab0d 613e
00000130: c6c9 c0be d6db ae3e ff75 08bd 415e c43e
00000140: 2bfe d63d 103a ba3c e98d abba 2663 4a3e
00000150: 2b73 f0bd 41a6 ca3c dea6 15bc d33f 163e
00000160: 22b2 863d 1dfa 4abd 0626 193e 4ecd a9be
00000170: 47e9 bebe d933 bdbd aff6 bdbd 9019 e63e
00000180: ca8a 6b3e 116c fcbd bd8c 41be 6b13 983d
00000190: ce17 683e 623c 6b3e 3db8 a13d 38ff cfbc
000001a0: 2625 0e3f 76a2 2cbe 0659 66bb 2e03 963d
000001b0: 3720 9b3e 23e1 ae3e d137 47be cdb1 8dbd
000001c0: ce14 d43e ce60 bf3d 1367 973e 297c 9ebd
000001d0: 3a74 93be 18b3 d23e 7d68 a93e e816 ca3d
000001e0: fd22 123d f2c1 b8bd ed0a d93d 1622 9a3c
000001f0: 5c4f 493d 5c7e 593e cb0d 6e3d 99d9 a9bd
00000200: f750 b83c 3caa e1bd a372 0f3f 3bad c23b
00000210: 0d9c e73d 0339 71be 0c19 c93d f74e fe3c
00000220: 3293 1c3e deef 13be 2ea4 8f3d 11c1 543e
00000230: 3afb 463e 9689 13be 20a9 30be 2385 22be
00000240: d3fc 883e e4c8 293e 1b69 033f c517 863e
00000250: f754 b33e 0d18 533d 2661 52bd f652 c83d
00000260: 3387 b6be 1e0b cabd fad1 ad3e f9fd ca3e
00000270: f950 c13c aca1 0c3d c525 163e bf97 133e
00000280: 4557 b03d b1df 05be 3b68 bb3c ae95 043e
00000290: a5a7 09bd 6ed6 643e 686a b93e 9b6b de3d
000002a0: af97 f8bd 1f8c a9be 1271 963e 9aeb 093e
000002b0: 40b5 b63c d3de 813d c879 34bd 23c5 203e
000002c0: 0331 263e 3821 403e ee66 213e 82e4 9dbd
000002d0: c96a 573e 84bc f8bd 5a86 103f 2870 9d3d
000002e0: dec1 20be 35a6 883e ea87 59bd 4b4b d73c
000002f0: 8da2 803e 2188 633e 99aa 863d 8245 c5bc
00000300: 562e 7c3e fd4f ec3d abe1 c93e 2c79 f1bd
00000310: c75b e0bd f797 963e b369 d9bc b8af 983e
00000320: bc84 1e3f 0a7b 403e 190d eb3d d8e1 06be
00000330: 67ce 5a3e 8b83 f73d 4e1b 983d 12ec e23e
00000340: 85c7 2a3d 4461 cd3d 81bb 1abe a602 ddbd
00000350: 045e e1bd 6b40 f53d 5db0 d83b 6bdf 003e
00000360: 8ca6 5fbe 991c fe3e 3f18 0d3e 7782 583e
00000370: 5103 40be d99e 44be 25b5 ae3d 7e3b 423e
00000380: 7f53 cfbe 43a1 363e cb73 123e 44aa 29be
00000390: 640a 033e 3dff 013d 85f2 80be 2aa1 893e
000003a0: 2e84 893d c1a5 54be 906e 003f c3b9 8a3c
000003b0: 1fbc 903d 4423 9bbe 13cd 89bd 26b5 15bd
000003c0: 120e 763e e074 8abe 5f78 17bc
0.032655794 0.0382097 0.2005433 0.07865729 0.10932488 0.68306583 -0.00305654 0.010395254
0.05668117 0.18243359 0.050753046 -0.123122096 0.2540549 -0.0019178826 -0.19938123 0.1520265
-0.12725863 0.26520395 0.23084185 0.2315316 0.095908076 -0.07881776 -0.06521094 -0.2163451
0.03009875 0.03047269 0.45357022 0.18895286 0.11914971 0.24862596 -0.06342892 0.009949804
-0.11401738 0.22673889 -0.12936102 -0.079845645 0.079236716 0.21094526 0.24022247 0.23545593
0.14826915 0.26761663 -0.26281083 -0.089028336 0.28306904 0.41410547 -0.27424902 -0.14151445
-0.06347535 0.067368664 -0.1292622 0.16039859 0.21689291 0.2361756 -0.1457118 -0.23493513
0.23518807 0.21593904 -0.44433013 0.12498227 -0.058004394 0.20556185 0.2994956 0.16707729
0.1835784 0.25447577 -0.094467364 -0.1299969 0.27041736 -0.04129766 -0.15321569 0.25079188
0.013089629 -0.0723901 -0.16636978 0.2197787 -0.3765394 0.34152097 -0.033315655 0.3835316
0.104976974 0.022732764 -0.0013088557 0.19764385 -0.117407165 0.02473748 -0.0091340225 0.14672785
0.06576945 -0.049554933 0.14955911 -0.33164448 -0.3728735 -0.09238405 -0.09275567 0.44941378
0.23002163 -0.123252995 -0.18901344 0.07425579 0.22665331 0.22972253 0.07896469 -0.025390252
0.55525434 -0.16858849 -0.0035148277 0.07324825 0.30298015 0.3415614 -0.19454886 -0.069186784
0.41422123 0.09344636 0.29570827 -0.077385254 -0.2879961 0.41152263 0.3308753 0.0986765
0.0356779 -0.09021367 0.10597787 0.018815082 0.04914795 0.21239609 0.058118623 -0.082934566
0.022499545 -0.11018798 0.56034297 0.005941061 0.11309061 -0.23556904 0.098192304 0.031043513
0.15290526 -0.14446971 0.07013737 0.20776774 0.19431773 -0.14407954 -0.17252016 -0.158711
0.2675539 0.1658054 0.51332253 0.2619001 0.3502576 0.05153661 -0.05136218 0.097814485
-0.35650024 -0.09865402 0.33949262 0.3964689 0.023598181 0.03433387 0.14662845 0.14413355
0.08610395 -0.13073613 0.02287685 0.12947723 -0.033607144 0.22347423 0.36213994 0.10860368
-0.12138306 -0.33114716 0.2938314 0.13468781 0.022303224 0.063413285 -0.044061452 0.15700202
0.16229634 0.18762672 0.15761921 -0.077096 0.21036829 -0.121453315 0.56455004 0.07687408
-0.15698954 0.26689306 -0.053108133 0.02628102 0.25124016 0.22219898 0.06575508 -0.024080995
0.24627051 0.11538694 0.39429983 -0.1179069 -0.10955005 0.29412815 -0.02653966 0.29821563
0.61921287 0.18796936 0.114771076 -0.1317209 0.21367799 0.12085637 0.07427083 0.44320732
0.041694183 0.100283176 -0.1511059 -0.10791521 -0.1100426 0.119751774 0.006612821 0.12585227
-0.21840876 0.49631193 0.1377878 0.21143518 -0.18751265 -0.1920122 0.08530644 0.18968007
-0.4049339 0.17834954 0.14301984 -0.16568857 0.12796932 0.031737555 -0.25185028 0.2688077
0.067146644 -0.20766355 0.50168705 0.016934281 0.07067131 -0.30300343 -0.06728568 -0.03654971
0.24028805 -0.27042294 -0.009245007

features.0.bn.running_mean f4 [243]
00000000: c777 9a3f 825d cd3e 20e9 063f 5a1e 433f
00000010: 792e 723f 36ba a840 fc7a 803f 9c5b 943f
00000020: 7c0a a43f c104 223f 9a55 663f 7658 8a3f
00000030: df71 1740 b273 be3f 7c7d 8e3f 34e3 2f3f
00000040: 6670 0340 31ea 3340 3f54 6a3f 462a 423f
00000050: 3a4f 9d3f 7eb3 003e 8f60 933f 81f3 0540
00000060: 27e2 183f 096e 0a40 5a69 2740 7a66 6140
00000070: 484e 963f f1c1 063f 867f c23f 362e fd3f
00000080: d065 0640 f3d8 ea3f 1f94 2c3f 64a0 2340
00000090: e891 653f cac7 923f 918e 6f3f 33d4 203f
000000a0: 62bb 1e40 0646 0e40 9b05 c43f 76c9 3f40
000000b0: 35de f23f 48e0 1640 e3c6 3240 e2bb 953f
000000c0: a55f bc3f 9656 f33f 607a 8b3f 589f 853f
000000d0: 18f3 c43f 72df 813f dfa0 e83f 4029 2540
000000e0: e18c 483f 6b3d b73f 323a f23f f749 913f
000000f0: b53c a23f 1389 b73f 512b b13f 7951 c13f
00000100: c9da 8540 c9ed 913f aa3d f93f 9254 f53f
00000110: 98e2 fd3f 8bda cd3f 0af8 1540 7000 3f3f
00000120: 75d1 b23f db94 603f aa24 3b40 c90e c63f
00000130: 0d38 f13f a1b7 143f 2cf0 2a40 8a32 783f
00000140: c124 ee3f 3570 3040 7f4a 563f 9c6f cb3f
00000150: 110c 6a3f 7752 8e3f e521 8f3f 2e22 783f
00000160: aa07 073f 1ec1 773f 19d5 6440 4f76 0040
00000170: d75b b73f eda7 0a40 a900 c53f 1a21 5e3f
00000180: 2ff6 f13f 5a2e cf3f a624 9d3f 9f17 9e3f
00000190: 5f4f 3c3f 7015 0640 ee86 1a3f db31 0f40
000001a0: 1e2c 2540 98b7 7a3f 384f b33f 2e33 063f
000001b0: dfae 3d3f c9e2 2940 0338 1640 dd48 703f
000001c0: 6aef 7a40 19c3 4c3f c198 4f3f eb06 7e3f
000001d0: 5170 9d3f 9c0c 883f 9ace d53f 5877 ae3f
000001e0: 9aad ce3f 381c 993f 8f71 993f 256e fa3f
000001f0: e657 9b3f 7e5b b93f e181 d63e fcd3 8a3f
00000200: 4584 263f cc2a 4040 ff43 c53f 98a9 be3e
00000210: 73d0 0140 126d 0640 97f0 9f3f 0b08 2940
00000220: 6954 b03f 44c8 1d40 a1c4 133f 91c4 b43e
00000230: abe1 0a40 8ee2 4f40 1f14 2340 b983 933f
00000240: 657d 803f d330 2b40 469e 3e40 7fba 5f40
00000250: c392 8940 76a5 3e3f 72d0 0340 91f8 ae3f
00000260: cce0 1e3f 0c09 0240 687e e73f 7d03 5940
00000270: db26 8740 af1a ea3f 06c3 b93f 7db6 c53e
00000280: bbea 963f 11f1 0440 c967 073f 6811 783f
00000290: 4f47 a63e 5074 a93f 8fe0 8c3f 0f2e a73f
000002a0: 7b67 2b3f 3e6b dc3f c42c 8b3f 5550 883f
000002b0: 0e1f 6f3f d4ec 453f cc7a 883f 4338 eb3f
000002c0: 6002 a73f 0eff e33f 48cd 023f 4bb1 1840
000002d0: eb06 c640 8362 e83f 3724 a840 385f 0a40
000002e0: da20 3a3f a7cb e23f 50d2 983f deb3 8c3f
000002f0: c412 e53f 0307 413f 4f08 d23f c75b cf3f
00000300: 19c7 1940 cd8c ae3f 8610 0440 4eb0 ac3f
00000310: 5f28 213f 746a a93f 0119 c23e 1ad3 8d40
00000320: 2280 9f3f efaa aa3e 60ec e83e d7a7 d53f
00000330: 63c1 6a3f 9842 b73f bae2 013f 2356 8940
00000340: 523a 9a3f d895 0040 9f76 bc3f ded2 ac3f
00000350: 3300 803f 393c 7b3f 7b12 6c3f be07 993f
00000360: 91c3 393f 36f3 a93f 6b60 683f 83da a53f
00000370: 32d8 bd3f 8b3e 1840 8bcf 1a3f bfa3 d53f
00000380: c9bf 0140 6066 5a3e b095 903f 192c 2340
00000390: c225 213f 86e1 0840 fda4 4f40 ca10 4040
000003a0: 4968 0f40 4b45 1b3f 570f a03f 29a1 d53f
000003b0: aa65 b53f b591 4140 cd97 013f 729b 463f
000003c0: 97c8 b13e 2b04 e93e 5d06 cb3f
1.2067803 0.40110403 0.5269947 0.7621819 0.9460216 5.272731 1.0037532 1.1590457
1.28157 0.63288504 0.8997437 1.0808246 2.3663251 1.4879057 1.1132045 0.6870606
2.0537353 2.811169 0.915348 0.75845754 1.2289803 0.12568471 1.1513842 2.0929873
0.5972008 2.162966 2.6158051 3.5218797 1.174264 0.5263968 1.5195167 1.9779727
2.0999641 1.8347458 0.67413515 2.5566645 0.8967576 1.1467221 0.93576914 0.6282379
2.480187 2.223024 1.5314211 2.9966712 1.8974062 2.357439 2.793389 1.1697962
1.4716688 1.9010799 1.0896721 1.0439253 1.5386686 1.0146315 1.8174094 2.5806427
0.78339964 1.4315618 1.892401 1.1350697 1.2674776 1.4338707 1.3841344 1.5102988
4.182957 1.1400691 1.9471943 1.9166434 1.9834776 1.6082319 2.343264 0.7461004
1.3970171 0.87727135 2.9241128 1.5473262 1.884523 0.58092695 2.670909 0.96952116
1.8604966 2.7568486 0.8370742 1.5893435 0.9142466 1.1118916 1.1182219 0.96927154
0.5274607 0.9677905 3.5755064 2.007221 1.4324902 2.1664994 1.5390826 0.8676926
1.8903254 1.618602 1.2276809 1.2350959 0.7355861 2.0950584 0.60362136 2.237418
2.5808177 0.9793639 1.4008551 0.52421844 0.7409496 2.6544669 2.3471687 0.9386118
3.9208627 0.79985195 0.8109246 0.99229306 1.2299901 1.0628848 1.6703675 1.3630171
1.6146729 1.1961737 1.198778 1.9564863 1.21362 1.4481046 0.41895965 1.0845942
0.6504558 3.002612 1.5411376 0.37238765 2.0283477 2.1004071 1.2495297 2.641116
1.377576 2.4653482 0.57721907 0.35306218 2.1700237 3.2482028 2.548103 1.1524574
1.0038267 2.674855 2.9784102 3.4957578 4.2991652 0.74471223 2.0595975 1.3669606
0.6206176 2.0318022 1.8085451 3.390838 4.223493 1.8289393 1.4512641 0.3861579
1.1790384 2.0772135 0.5289274 0.9690156 0.3247628 1.3238621 1.100603 1.3060931
0.66954774 1.7220228 1.0873036 1.0649515 0.9340676 0.77314496 1.0662475 1.8376545
1.30476 1.7812212 0.51094484 2.385821 6.1883445 1.8155063 5.2544208 2.1620617
0.7270638 1.77184 1.1939182 1.0992391 1.7896352 0.75401324 1.6408786 1.6199883
2.402777 1.3636719 2.0635085 1.3491304 0.62952226 1.3235612 0.379097 4.432019
1.2460978 0.33333537 0.4549284 1.6691846 0.91701335 1.4317198 0.5073658 4.2917647
1.2049048 2.0091457 1.47237 1.3501852 1.0000061 0.9813877 0.922157 1.1955488
0.72564036 1.3277347 0.9077212 1.295731 1.4831603 2.3788173 0.60472935 1.6690596
2.0273306 0.21328115 1.1295681 2.5495665 0.6294824 2.1387649 3.244445 3.0010247
2.24074 0.6065261 1.2504681 1.6689807 1.417165 3.0245183 0.50622255 0.7758094
0.3472335 0.45510992 1.5861317

features.0.bn.running_var f4 [243]
00000000: 4ffc 3e40 9a82 dd3f 2525 8940 4a64 a03f
00000010: 7735 c440 8722 0143 9214 843f 07af 9c40
00000020: 4b2c a43f 1066 b240 20bf b73f a403 0240
00000030: f954 b841 d8c1 0441 08a2 9a3f 219a 1b3f
00000040: 3ecf 1940 5cf4 3542 7194 5240 dcfc b03f
00000050: 3dc9 6540 0914 cf3e 9d2f d93f 0981 1340
00000060: fb56 3440 b4c8 c541 f1d8 9c41 af87 7042
00000070: c20f b63f 4d02 3740 f4bf 9341 7ea7 da40
00000080: 09ff 4e40 147a b240 c585 123f 01e6 7c40
00000090: ea8b 763f 2d0c f440 11a4 8740 00e7 5040
000000a0: acbf dd41 b97f 2441 a831 b73f b76c 8740
000000b0: deb8 cc40 14af f041 f2c1 4b40 8f10 9f3f
000000c0: f6b1 1940 d315 ad40 590e 1540 c459 9c3f
000000d0: f44e 4c40 8ed9 3340 e827 1540 22e1 4640
000000e0: 049d 6340 d332 d93f 6779 0940 950b 813f
000000f0: b57a a141 e3fa 7041 61b2 8541 4545 b43f
00000100: 3c25 bf42 083b 3e40 9f2d fa3f c869 0240
00000110: fc91 9640 4a4a 3840 9b5b 3840 0783 4f40
00000120: 8585 4240 c0b3 513f 9cf6 7e40 c465 0140
00000130: 8a70 2540 a62d 4540 95f7 5740 b386 df40
00000140: 3427 0441 6a09 f841 9073 6040 bb77 6041
00000150: 791e d53f 51b9 fa3f 90d2 7d40 9413 0440
00000160: 3995 3e40 2f52 1740 c834 a642 b90a 2740
00000170: 6186 903f 95d7 1540 0b09 ea3f 9ea0 c840
00000180: 794f ae41 39f5 ab3f 57c8 b13f 7511 953f
00000190: de9b 1040 9d41 1a40 58c1 3440 1def 4740
000001a0: 1547 2d42 9fd0 803f 5add 9540 9c87 773f
000001b0: 99b9 9a40 be29 1742 f9ab 3b40 eba7 823f
000001c0: f460 7a42 56bc ba40 b763 6340 1d4d 723f
000001d0: 6e9a d93f bbf5 9040 6098 6541 fe39 2d40
000001e0: 4101 bf40 2d81 fc3f 347c 2140 4fef cb40
000001f0: 4c33 c340 5077 c540 c763 993f 1110 e53f
00000200: da26 233f 478f 8d40 8680 6441 d132 773e
00000210: a8b3 8240 80c5 3540 e44e e940 14c3 1642
00000220: 7507 ae3f 05fb 3240 c839 2a40 6476 893e
00000230: 2fb6 1140 6eb3 8240 d499 5040 bf35 1941
00000240: 2e81 a840 b95b 1b42 1ae0 8142 e019 5742
00000250: 4308 9b42 ed2f d340 bb90 0740 08da af3f
00000260: 2e8d a140 0563 2440 aaf8 3341 e87c 7342
00000270: 98bd c842 27e5 0f40 3848 8840 2513 943e
00000280: f73f 6740 1f2a fd3f d9d8 9540 3740 ef40
00000290: 9b30 ce3f aa3a 4441 478a f840 031d cf40
000002a0: 27f4 423f 1d93 ed3f a5a0 2741 c076 e440
000002b0: 8933 6340 735e 8f40 fc60 c73f cc55 7741
000002c0: 1982 b53f 5eaa c340 b14b 2d40 518a 2740
000002d0: 285e 2f43 19f3 6540 b574 fb42 251d 7140
000002e0: 36d8 a840 4d65 8941 481b 893f 7e15 1740
000002f0: fc88 f241 0e6e 1740 12ce 7640 bdc6 c140
00000300: 47ef 1f42 86f0 cb40 ad38 df41 d1cb d33f
00000310: e5f7 3540 5a34 ae40 6c82 aa3f c334 ce42
00000320: 6baa e740 1905 bb3f 48e9 b53f 0624 e43f
00000330: 74e8 3b40 7a68 8c41 4f63 f63f 63a3 c442
00000340: 0ff0 a23f f5c0 c841 4746 e63f 81b1 b23f
00000350: 53a1 ae3f f707 d840 53bd 6140 1339 c740
00000360: 091f 1940 4f55 7041 63e1 3740 c8ed bd3f
00000370: 9135 bd3f 1846 5c40 d52b 933f 7ceb 8041
00000380: 5240 2740 94c4 9b3f 39a2 cf40 49e8 6c40
00000390: bc07 9440 0b6b 2440 99c8 9540 44bb 4842
000003a0: fb84 1140 fcaf c33f 62cd 0d40 fd74 f640
000003b0: 0b1d 8c41 50a5 7240 8c66 0540 e2df 923f
000003c0: 9784 fb3f 92b3 3b3f 640d 0040
2.9841497 1.7305481 4.2857842 1.2530606 6.1315265 129.13487 1.0318778 4.8963656
1.2826017 5.574959 1.4355202 2.0314722 23.04149 8.297325 1.2080698 0.6078206
2.403274 45.488632 3.2903101 1.3827167 3.5904076 0.40444973 1.6967655 2.3047507
2.8178089 24.723 19.605928 60.132504 1.4223559 2.8595154 18.468727 6.832946
3.234316 5.577402 0.57235366 3.9515383 0.9630724 7.6264863 4.2387776 3.2640991
27.71859 10.281182 1.4312029 4.232021 6.397567 30.085487 3.1837125 1.2426928
2.4014869 5.408914 2.3290007 1.2214894 3.192319 2.8101535 2.3305607 3.107491
3.5564585 1.6968635 2.1480348 1.008166 20.184916 15.061252 16.7121 1.4083639
95.57272 2.972353 1.9545172 2.0377064 4.7053204 2.8795342 2.8805912 3.2423723
3.0393994 0.819149 3.9838018 2.0218363 2.5849938 3.0809112 3.3744862 6.985193
8.259571 31.004597 3.5070534 14.029231 1.6649925 1.9587804 3.9659767 2.063695
2.9778578 2.364391 83.10309 2.6100295 1.1291009 2.341283 1.828401 6.2696066
21.788805 1.3434211 1.3889264 1.1645952 2.2595134 2.4102547 2.8243008 3.1239693
43.319416 1.0063666 4.6832705 0.966913 4.835156 37.790764 2.9323714 1.0207494
62.59468 5.83549 3.552961 0.94648916 1.7000253 4.5299964 14.349701 2.7066646
5.968903 1.9726921 2.5232058 6.3729625 6.100012 6.1708145 1.1983575 1.7895528
0.6373116 4.42374 14.281378 0.24140479 4.0844307 2.8401794 7.29088 37.690506
1.3596026 2.796571 2.6597767 0.26848137 2.2767446 4.084403 3.259389 9.575622
5.265769 38.839573 64.9377 53.77527 77.516136 6.5996003 2.1182086 1.3738413
5.048484 2.5685437 11.248209 60.87198 100.3703 2.2483613 4.258816 0.28920856
3.613279 1.9778479 4.6827207 7.4765887 1.6108583 12.264322 7.7668796 6.4722915
0.76153797 1.856052 10.47672 7.139496 3.5500205 4.4802794 1.5576472 15.4584465
1.4180328 6.114547 2.7077448 2.6178172 175.3678 3.5929625 125.72794 3.7674038
5.276393 17.174463 1.071145 2.3606868 30.316887 2.3660922 3.8563275 6.05551
39.98367 6.373111 27.902674 1.6546575 2.8432553 5.4438906 1.3321052 103.10305
7.239553 1.4610931 1.4211817 1.7823493 2.9360628 17.551014 1.9249057 98.319115
1.272951 25.094217 1.7990197 1.396042 1.3642982 6.7509723 3.5271804 6.225717
2.3925192 15.020827 2.8731315 1.483819 1.4781972 3.4417782 1.1497751 16.114983
2.6133008 1.2169366 6.4885526 3.7016776 4.625944 2.5690334 4.680737 50.182877
2.2737415 1.5288081 2.2156606 7.701781 17.514181 3.7913399 2.084384 1.1474574
1.9649838 0.7332088 2.0008173
